{"format": "layers-model", "generatedBy": "keras v2.10.0", "convertedBy": "TensorFlow.js Converter v3.21.0", "modelTopology": {"keras_version": "2.10.0", "backend": "tensorflow", "model_config": {"class_name": "Functional", "config": {"name": "NASNet", "layers": [{"class_name": "InputLayer", "config": {"batch_input_shape": [null, 224, 224, 3], "dtype": "float32", "sparse": false, "ragged": false, "name": "input_4"}, "name": "input_4", "inbound_nodes": []}, {"class_name": "Conv2D", "config": {"name": "stem_conv1", "trainable": true, "dtype": "float32", "filters": 32, "kernel_size": [3, 3], "strides": [2, 2], "padding": "valid", "data_format": "channels_last", "dilation_rate": [1, 1], "groups": 1, "activation": "linear", "use_bias": false, "kernel_initializer": {"class_name": "HeNormal", "config": {"seed": null}}, "bias_initializer": {"class_name": "Zeros", "config": {}}, "kernel_regularizer": null, "bias_regularizer": null, "activity_regularizer": null, "kernel_constraint": null, "bias_constraint": null}, "name": "stem_conv1", "inbound_nodes": [[["input_4", 0, 0, {}]]]}, {"class_name": "BatchNormalization", "config": {"name": "stem_bn1", "trainable": true, "dtype": "float32", "axis": [3], "momentum": 0.9997, "epsilon": 0.001, "center": true, "scale": true, "beta_initializer": {"class_name": "Zeros", "config": {}}, "gamma_initializer": {"class_name": "Ones", "config": {}}, "moving_mean_initializer": {"class_name": "Zeros", "config": {}}, "moving_variance_initializer": {"class_name": "Ones", "config": {}}, "beta_regularizer": null, "gamma_regularizer": null, "beta_constraint": null, "gamma_constraint": null}, "name": "stem_bn1", "inbound_nodes": [[["stem_conv1", 0, 0, {}]]]}, {"class_name": "Activation", "config": {"name": "activation", "trainable": true, "dtype": "float32", "activation": "relu"}, "name": "activation", "inbound_nodes": [[["stem_bn1", 0, 0, {}]]]}, {"class_name": "Conv2D", "config": {"name": "reduction_conv_1_stem_1", "trainable": true, "dtype": "float32", "filters": 11, "kernel_size": [1, 1], "strides": [1, 1], "padding": "same", "data_format": "channels_last", "dilation_rate": [1, 1], "groups": 1, "activation": "linear", "use_bias": false, "kernel_initializer": {"class_name": "HeNormal", "config": {"seed": null}}, "bias_initializer": {"class_name": "Zeros", "config": {}}, "kernel_regularizer": null, "bias_regularizer": null, "activity_regularizer": null, "kernel_constraint": null, "bias_constraint": null}, "name": "reduction_conv_1_stem_1", "inbound_nodes": [[["activation", 0, 0, {}]]]}, {"class_name": "BatchNormalization", "config": {"name": "reduction_bn_1_stem_1", "trainable": true, "dtype": "float32", "axis": [3], "momentum": 0.9997, "epsilon": 0.001, "center": true, "scale": true, "beta_initializer": {"class_name": "Zeros", "config": {}}, "gamma_initializer": {"class_name": "Ones", "config": {}}, "moving_mean_initializer": {"class_name": "Zeros", "config": {}}, "moving_variance_initializer": {"class_name": "Ones", "config": {}}, "beta_regularizer": null, "gamma_regularizer": null, "beta_constraint": null, "gamma_constraint": null}, "name": "reduction_bn_1_stem_1", "inbound_nodes": [[["reduction_conv_1_stem_1", 0, 0, {}]]]}, {"class_name": "Activation", "config": {"name": "activation_1", "trainable": true, "dtype": "float32", "activation": "relu"}, "name": "activation_1", "inbound_nodes": [[["reduction_bn_1_stem_1", 0, 0, {}]]]}, {"class_name": "Activation", "config": {"name": "activation_3", "trainable": true, "dtype": "float32", "activation": "relu"}, "name": "activation_3", "inbound_nodes": [[["stem_bn1", 0, 0, {}]]]}, {"class_name": "ZeroPadding2D", "config": {"name": "separable_conv_1_pad_reduction_left1_stem_1", "trainable": true, "dtype": "float32", "padding": [[2, 2], [2, 2]], "data_format": "channels_last"}, "name": "separable_conv_1_pad_reduction_left1_stem_1", "inbound_nodes": [[["activation_1", 0, 0, {}]]]}, {"class_name": "ZeroPadding2D", "config": {"name": "separable_conv_1_pad_reduction_right1_stem_1", "trainable": true, "dtype": "float32", "padding": [[3, 3], [3, 3]], "data_format": "channels_last"}, "name": "separable_conv_1_pad_reduction_right1_stem_1", "inbound_nodes": [[["activation_3", 0, 0, {}]]]}, {"class_name": "SeparableConv2D", "config": {"name": "separable_conv_1_reduction_left1_stem_1", "trainable": true, "dtype": "float32", "filters": 11, "kernel_size": [5, 5], "strides": [2, 2], "padding": "valid", "data_format": "channels_last", "dilation_rate": [1, 1], "groups": 1, "activation": "linear", "use_bias": false, "kernel_initializer": {"class_name": "HeNormal", "config": {"seed": null}}, "bias_initializer": {"class_name": "Zeros", "config": {}, "shared_object_id": 24}, "kernel_regularizer": null, "bias_regularizer": null, "activity_regularizer": null, "kernel_constraint": null, "bias_constraint": null, "depth_multiplier": 1, "depthwise_initializer": {"class_name": "GlorotUniform", "config": {"seed": null}}, "pointwise_initializer": {"class_name": "GlorotUniform", "config": {"seed": null}}, "depthwise_regularizer": null, "pointwise_regularizer": null, "depthwise_constraint": null, "pointwise_constraint": null}, "name": "separable_conv_1_reduction_left1_stem_1", "inbound_nodes": [[["separable_conv_1_pad_reduction_left1_stem_1", 0, 0, {}]]]}, {"class_name": "SeparableConv2D", "config": {"name": "separable_conv_1_reduction_right1_stem_1", "trainable": true, "dtype": "float32", "filters": 11, "kernel_size": [7, 7], "strides": [2, 2], "padding": "valid", "data_format": "channels_last", "dilation_rate": [1, 1], "groups": 1, "activation": "linear", "use_bias": false, "kernel_initializer": {"class_name": "HeNormal", "config": {"seed": null}}, "bias_initializer": {"class_name": "Zeros", "config": {}, "shared_object_id": 29}, "kernel_regularizer": null, "bias_regularizer": null, "activity_regularizer": null, "kernel_constraint": null, "bias_constraint": null, "depth_multiplier": 1, "depthwise_initializer": {"class_name": "GlorotUniform", "config": {"seed": null}}, "pointwise_initializer": {"class_name": "GlorotUniform", "config": {"seed": null}}, "depthwise_regularizer": null, "pointwise_regularizer": null, "depthwise_constraint": null, "pointwise_constraint": null}, "name": "separable_conv_1_reduction_right1_stem_1", "inbound_nodes": [[["separable_conv_1_pad_reduction_right1_stem_1", 0, 0, {}]]]}, {"class_name": "BatchNormalization", "config": {"name": "separable_conv_1_bn_reduction_left1_stem_1", "trainable": true, "dtype": "float32", "axis": [3], "momentum": 0.9997, "epsilon": 0.001, "center": true, "scale": true, "beta_initializer": {"class_name": "Zeros", "config": {}}, "gamma_initializer": {"class_name": "Ones", "config": {}}, "moving_mean_initializer": {"class_name": "Zeros", "config": {}}, "moving_variance_initializer": {"class_name": "Ones", "config": {}}, "beta_regularizer": null, "gamma_regularizer": null, "beta_constraint": null, "gamma_constraint": null}, "name": "separable_conv_1_bn_reduction_left1_stem_1", "inbound_nodes": [[["separable_conv_1_reduction_left1_stem_1", 0, 0, {}]]]}, {"class_name": "BatchNormalization", "config": {"name": "separable_conv_1_bn_reduction_right1_stem_1", "trainable": true, "dtype": "float32", "axis": [3], "momentum": 0.9997, "epsilon": 0.001, "center": true, "scale": true, "beta_initializer": {"class_name": "Zeros", "config": {}}, "gamma_initializer": {"class_name": "Ones", "config": {}}, "moving_mean_initializer": {"class_name": "Zeros", "config": {}}, "moving_variance_initializer": {"class_name": "Ones", "config": {}}, "beta_regularizer": null, "gamma_regularizer": null, "beta_constraint": null, "gamma_constraint": null}, "name": "separable_conv_1_bn_reduction_right1_stem_1", "inbound_nodes": [[["separable_conv_1_reduction_right1_stem_1", 0, 0, {}]]]}, {"class_name": "Activation", "config": {"name": "activation_2", "trainable": true, "dtype": "float32", "activation": "relu"}, "name": "activation_2", "inbound_nodes": [[["separable_conv_1_bn_reduction_left1_stem_1", 0, 0, {}]]]}, {"class_name": "Activation", "config": {"name": "activation_4", "trainable": true, "dtype": "float32", "activation": "relu"}, "name": "activation_4", "inbound_nodes": [[["separable_conv_1_bn_reduction_right1_stem_1", 0, 0, {}]]]}, {"class_name": "SeparableConv2D", "config": {"name": "separable_conv_2_reduction_left1_stem_1", "trainable": true, "dtype": "float32", "filters": 11, "kernel_size": [5, 5], "strides": [1, 1], "padding": "same", "data_format": "channels_last", "dilation_rate": [1, 1], "groups": 1, "activation": "linear", "use_bias": false, "kernel_initializer": {"class_name": "HeNormal", "config": {"seed": null}}, "bias_initializer": {"class_name": "Zeros", "config": {}, "shared_object_id": 46}, "kernel_regularizer": null, "bias_regularizer": null, "activity_regularizer": null, "kernel_constraint": null, "bias_constraint": null, "depth_multiplier": 1, "depthwise_initializer": {"class_name": "GlorotUniform", "config": {"seed": null}}, "pointwise_initializer": {"class_name": "GlorotUniform", "config": {"seed": null}}, "depthwise_regularizer": null, "pointwise_regularizer": null, "depthwise_constraint": null, "pointwise_constraint": null}, "name": "separable_conv_2_reduction_left1_stem_1", "inbound_nodes": [[["activation_2", 0, 0, {}]]]}, {"class_name": "SeparableConv2D", "config": {"name": "separable_conv_2_reduction_right1_stem_1", "trainable": true, "dtype": "float32", "filters": 11, "kernel_size": [7, 7], "strides": [1, 1], "padding": "same", "data_format": "channels_last", "dilation_rate": [1, 1], "groups": 1, "activation": "linear", "use_bias": false, "kernel_initializer": {"class_name": "HeNormal", "config": {"seed": null}}, "bias_initializer": {"class_name": "Zeros", "config": {}, "shared_object_id": 51}, "kernel_regularizer": null, "bias_regularizer": null, "activity_regularizer": null, "kernel_constraint": null, "bias_constraint": null, "depth_multiplier": 1, "depthwise_initializer": {"class_name": "GlorotUniform", "config": {"seed": null}}, "pointwise_initializer": {"class_name": "GlorotUniform", "config": {"seed": null}}, "depthwise_regularizer": null, "pointwise_regularizer": null, "depthwise_constraint": null, "pointwise_constraint": null}, "name": "separable_conv_2_reduction_right1_stem_1", "inbound_nodes": [[["activation_4", 0, 0, {}]]]}, {"class_name": "Activation", "config": {"name": "activation_5", "trainable": true, "dtype": "float32", "activation": "relu"}, "name": "activation_5", "inbound_nodes": [[["stem_bn1", 0, 0, {}]]]}, {"class_name": "BatchNormalization", "config": {"name": "separable_conv_2_bn_reduction_left1_stem_1", "trainable": true, "dtype": "float32", "axis": [3], "momentum": 0.9997, "epsilon": 0.001, "center": true, "scale": true, "beta_initializer": {"class_name": "Zeros", "config": {}}, "gamma_initializer": {"class_name": "Ones", "config": {}}, "moving_mean_initializer": {"class_name": "Zeros", "config": {}}, "moving_variance_initializer": {"class_name": "Ones", "config": {}}, "beta_regularizer": null, "gamma_regularizer": null, "beta_constraint": null, "gamma_constraint": null}, "name": "separable_conv_2_bn_reduction_left1_stem_1", "inbound_nodes": [[["separable_conv_2_reduction_left1_stem_1", 0, 0, {}]]]}, {"class_name": "BatchNormalization", "config": {"name": "separable_conv_2_bn_reduction_right1_stem_1", "trainable": true, "dtype": "float32", "axis": [3], "momentum": 0.9997, "epsilon": 0.001, "center": true, "scale": true, "beta_initializer": {"class_name": "Zeros", "config": {}}, "gamma_initializer": {"class_name": "Ones", "config": {}}, "moving_mean_initializer": {"class_name": "Zeros", "config": {}}, "moving_variance_initializer": {"class_name": "Ones", "config": {}}, "beta_regularizer": null, "gamma_regularizer": null, "beta_constraint": null, "gamma_constraint": null}, "name": "separable_conv_2_bn_reduction_right1_stem_1", "inbound_nodes": [[["separable_conv_2_reduction_right1_stem_1", 0, 0, {}]]]}, {"class_name": "ZeroPadding2D", "config": {"name": "separable_conv_1_pad_reduction_right2_stem_1", "trainable": true, "dtype": "float32", "padding": [[3, 3], [3, 3]], "data_format": "channels_last"}, "name": "separable_conv_1_pad_reduction_right2_stem_1", "inbound_nodes": [[["activation_5", 0, 0, {}]]]}, {"class_name": "Activation", "config": {"name": "activation_7", "trainable": true, "dtype": "float32", "activation": "relu"}, "name": "activation_7", "inbound_nodes": [[["stem_bn1", 0, 0, {}]]]}, {"class_name": "Add", "config": {"name": "reduction_add_1_stem_1", "trainable": true, "dtype": "float32"}, "name": "reduction_add_1_stem_1", "inbound_nodes": [[["separable_conv_2_bn_reduction_left1_stem_1", 0, 0, {}], ["separable_conv_2_bn_reduction_right1_stem_1", 0, 0, {}]]]}, {"class_name": "SeparableConv2D", "config": {"name": "separable_conv_1_reduction_right2_stem_1", "trainable": true, "dtype": "float32", "filters": 11, "kernel_size": [7, 7], "strides": [2, 2], "padding": "valid", "data_format": "channels_last", "dilation_rate": [1, 1], "groups": 1, "activation": "linear", "use_bias": false, "kernel_initializer": {"class_name": "HeNormal", "config": {"seed": null}}, "bias_initializer": {"class_name": "Zeros", "config": {}, "shared_object_id": 70}, "kernel_regularizer": null, "bias_regularizer": null, "activity_regularizer": null, "kernel_constraint": null, "bias_constraint": null, "depth_multiplier": 1, "depthwise_initializer": {"class_name": "GlorotUniform", "config": {"seed": null}}, "pointwise_initializer": {"class_name": "GlorotUniform", "config": {"seed": null}}, "depthwise_regularizer": null, "pointwise_regularizer": null, "depthwise_constraint": null, "pointwise_constraint": null}, "name": "separable_conv_1_reduction_right2_stem_1", "inbound_nodes": [[["separable_conv_1_pad_reduction_right2_stem_1", 0, 0, {}]]]}, {"class_name": "ZeroPadding2D", "config": {"name": "separable_conv_1_pad_reduction_right3_stem_1", "trainable": true, "dtype": "float32", "padding": [[2, 2], [2, 2]], "data_format": "channels_last"}, "name": "separable_conv_1_pad_reduction_right3_stem_1", "inbound_nodes": [[["activation_7", 0, 0, {}]]]}, {"class_name": "Activation", "config": {"name": "activation_9", "trainable": true, "dtype": "float32", "activation": "relu"}, "name": "activation_9", "inbound_nodes": [[["reduction_add_1_stem_1", 0, 0, {}]]]}, {"class_name": "BatchNormalization", "config": {"name": "separable_conv_1_bn_reduction_right2_stem_1", "trainable": true, "dtype": "float32", "axis": [3], "momentum": 0.9997, "epsilon": 0.001, "center": true, "scale": true, "beta_initializer": {"class_name": "Zeros", "config": {}}, "gamma_initializer": {"class_name": "Ones", "config": {}}, "moving_mean_initializer": {"class_name": "Zeros", "config": {}}, "moving_variance_initializer": {"class_name": "Ones", "config": {}}, "beta_regularizer": null, "gamma_regularizer": null, "beta_constraint": null, "gamma_constraint": null}, "name": "separable_conv_1_bn_reduction_right2_stem_1", "inbound_nodes": [[["separable_conv_1_reduction_right2_stem_1", 0, 0, {}]]]}, {"class_name": "SeparableConv2D", "config": {"name": "separable_conv_1_reduction_right3_stem_1", "trainable": true, "dtype": "float32", "filters": 11, "kernel_size": [5, 5], "strides": [2, 2], "padding": "valid", "data_format": "channels_last", "dilation_rate": [1, 1], "groups": 1, "activation": "linear", "use_bias": false, "kernel_initializer": {"class_name": "HeNormal", "config": {"seed": null}}, "bias_initializer": {"class_name": "Zeros", "config": {}, "shared_object_id": 82}, "kernel_regularizer": null, "bias_regularizer": null, "activity_regularizer": null, "kernel_constraint": null, "bias_constraint": null, "depth_multiplier": 1, "depthwise_initializer": {"class_name": "GlorotUniform", "config": {"seed": null}}, "pointwise_initializer": {"class_name": "GlorotUniform", "config": {"seed": null}}, "depthwise_regularizer": null, "pointwise_regularizer": null, "depthwise_constraint": null, "pointwise_constraint": null}, "name": "separable_conv_1_reduction_right3_stem_1", "inbound_nodes": [[["separable_conv_1_pad_reduction_right3_stem_1", 0, 0, {}]]]}, {"class_name": "SeparableConv2D", "config": {"name": "separable_conv_1_reduction_left4_stem_1", "trainable": true, "dtype": "float32", "filters": 11, "kernel_size": [3, 3], "strides": [1, 1], "padding": "same", "data_format": "channels_last", "dilation_rate": [1, 1], "groups": 1, "activation": "linear", "use_bias": false, "kernel_initializer": {"class_name": "HeNormal", "config": {"seed": null}}, "bias_initializer": {"class_name": "Zeros", "config": {}, "shared_object_id": 87}, "kernel_regularizer": null, "bias_regularizer": null, "activity_regularizer": null, "kernel_constraint": null, "bias_constraint": null, "depth_multiplier": 1, "depthwise_initializer": {"class_name": "GlorotUniform", "config": {"seed": null}}, "pointwise_initializer": {"class_name": "GlorotUniform", "config": {"seed": null}}, "depthwise_regularizer": null, "pointwise_regularizer": null, "depthwise_constraint": null, "pointwise_constraint": null}, "name": "separable_conv_1_reduction_left4_stem_1", "inbound_nodes": [[["activation_9", 0, 0, {}]]]}, {"class_name": "Activation", "config": {"name": "activation_6", "trainable": true, "dtype": "float32", "activation": "relu"}, "name": "activation_6", "inbound_nodes": [[["separable_conv_1_bn_reduction_right2_stem_1", 0, 0, {}]]]}, {"class_name": "BatchNormalization", "config": {"name": "separable_conv_1_bn_reduction_right3_stem_1", "trainable": true, "dtype": "float32", "axis": [3], "momentum": 0.9997, "epsilon": 0.001, "center": true, "scale": true, "beta_initializer": {"class_name": "Zeros", "config": {}}, "gamma_initializer": {"class_name": "Ones", "config": {}}, "moving_mean_initializer": {"class_name": "Zeros", "config": {}}, "moving_variance_initializer": {"class_name": "Ones", "config": {}}, "beta_regularizer": null, "gamma_regularizer": null, "beta_constraint": null, "gamma_constraint": null}, "name": "separable_conv_1_bn_reduction_right3_stem_1", "inbound_nodes": [[["separable_conv_1_reduction_right3_stem_1", 0, 0, {}]]]}, {"class_name": "BatchNormalization", "config": {"name": "separable_conv_1_bn_reduction_left4_stem_1", "trainable": true, "dtype": "float32", "axis": [3], "momentum": 0.9997, "epsilon": 0.001, "center": true, "scale": true, "beta_initializer": {"class_name": "Zeros", "config": {}}, "gamma_initializer": {"class_name": "Ones", "config": {}}, "moving_mean_initializer": {"class_name": "Zeros", "config": {}}, "moving_variance_initializer": {"class_name": "Ones", "config": {}}, "beta_regularizer": null, "gamma_regularizer": null, "beta_constraint": null, "gamma_constraint": null}, "name": "separable_conv_1_bn_reduction_left4_stem_1", "inbound_nodes": [[["separable_conv_1_reduction_left4_stem_1", 0, 0, {}]]]}, {"class_name": "ZeroPadding2D", "config": {"name": "reduction_pad_1_stem_1", "trainable": true, "dtype": "float32", "padding": [[1, 1], [1, 1]], "data_format": "channels_last"}, "name": "reduction_pad_1_stem_1", "inbound_nodes": [[["reduction_bn_1_stem_1", 0, 0, {}]]]}, {"class_name": "SeparableConv2D", "config": {"name": "separable_conv_2_reduction_right2_stem_1", "trainable": true, "dtype": "float32", "filters": 11, "kernel_size": [7, 7], "strides": [1, 1], "padding": "same", "data_format": "channels_last", "dilation_rate": [1, 1], "groups": 1, "activation": "linear", "use_bias": false, "kernel_initializer": {"class_name": "HeNormal", "config": {"seed": null}}, "bias_initializer": {"class_name": "Zeros", "config": {}, "shared_object_id": 104}, "kernel_regularizer": null, "bias_regularizer": null, "activity_regularizer": null, "kernel_constraint": null, "bias_constraint": null, "depth_multiplier": 1, "depthwise_initializer": {"class_name": "GlorotUniform", "config": {"seed": null}}, "pointwise_initializer": {"class_name": "GlorotUniform", "config": {"seed": null}}, "depthwise_regularizer": null, "pointwise_regularizer": null, "depthwise_constraint": null, "pointwise_constraint": null}, "name": "separable_conv_2_reduction_right2_stem_1", "inbound_nodes": [[["activation_6", 0, 0, {}]]]}, {"class_name": "Activation", "config": {"name": "activation_8", "trainable": true, "dtype": "float32", "activation": "relu"}, "name": "activation_8", "inbound_nodes": [[["separable_conv_1_bn_reduction_right3_stem_1", 0, 0, {}]]]}, {"class_name": "Activation", "config": {"name": "activation_10", "trainable": true, "dtype": "float32", "activation": "relu"}, "name": "activation_10", "inbound_nodes": [[["separable_conv_1_bn_reduction_left4_stem_1", 0, 0, {}]]]}, {"class_name": "MaxPooling2D", "config": {"name": "reduction_left2_stem_1", "trainable": true, "dtype": "float32", "pool_size": [3, 3], "padding": "valid", "strides": [2, 2], "data_format": "channels_last"}, "name": "reduction_left2_stem_1", "inbound_nodes": [[["reduction_pad_1_stem_1", 0, 0, {}]]]}, {"class_name": "BatchNormalization", "config": {"name": "separable_conv_2_bn_reduction_right2_stem_1", "trainable": true, "dtype": "float32", "axis": [3], "momentum": 0.9997, "epsilon": 0.001, "center": true, "scale": true, "beta_initializer": {"class_name": "Zeros", "config": {}}, "gamma_initializer": {"class_name": "Ones", "config": {}}, "moving_mean_initializer": {"class_name": "Zeros", "config": {}}, "moving_variance_initializer": {"class_name": "Ones", "config": {}}, "beta_regularizer": null, "gamma_regularizer": null, "beta_constraint": null, "gamma_constraint": null}, "name": "separable_conv_2_bn_reduction_right2_stem_1", "inbound_nodes": [[["separable_conv_2_reduction_right2_stem_1", 0, 0, {}]]]}, {"class_name": "SeparableConv2D", "config": {"name": "separable_conv_2_reduction_right3_stem_1", "trainable": true, "dtype": "float32", "filters": 11, "kernel_size": [5, 5], "strides": [1, 1], "padding": "same", "data_format": "channels_last", "dilation_rate": [1, 1], "groups": 1, "activation": "linear", "use_bias": false, "kernel_initializer": {"class_name": "HeNormal", "config": {"seed": null}}, "bias_initializer": {"class_name": "Zeros", "config": {}, "shared_object_id": 117}, "kernel_regularizer": null, "bias_regularizer": null, "activity_regularizer": null, "kernel_constraint": null, "bias_constraint": null, "depth_multiplier": 1, "depthwise_initializer": {"class_name": "GlorotUniform", "config": {"seed": null}}, "pointwise_initializer": {"class_name": "GlorotUniform", "config": {"seed": null}}, "depthwise_regularizer": null, "pointwise_regularizer": null, "depthwise_constraint": null, "pointwise_constraint": null}, "name": "separable_conv_2_reduction_right3_stem_1", "inbound_nodes": [[["activation_8", 0, 0, {}]]]}, {"class_name": "SeparableConv2D", "config": {"name": "separable_conv_2_reduction_left4_stem_1", "trainable": true, "dtype": "float32", "filters": 11, "kernel_size": [3, 3], "strides": [1, 1], "padding": "same", "data_format": "channels_last", "dilation_rate": [1, 1], "groups": 1, "activation": "linear", "use_bias": false, "kernel_initializer": {"class_name": "HeNormal", "config": {"seed": null}}, "bias_initializer": {"class_name": "Zeros", "config": {}, "shared_object_id": 122}, "kernel_regularizer": null, "bias_regularizer": null, "activity_regularizer": null, "kernel_constraint": null, "bias_constraint": null, "depth_multiplier": 1, "depthwise_initializer": {"class_name": "GlorotUniform", "config": {"seed": null}}, "pointwise_initializer": {"class_name": "GlorotUniform", "config": {"seed": null}}, "depthwise_regularizer": null, "pointwise_regularizer": null, "depthwise_constraint": null, "pointwise_constraint": null}, "name": "separable_conv_2_reduction_left4_stem_1", "inbound_nodes": [[["activation_10", 0, 0, {}]]]}, {"class_name": "Activation", "config": {"name": "adjust_relu_1_stem_2", "trainable": true, "dtype": "float32", "activation": "relu"}, "name": "adjust_relu_1_stem_2", "inbound_nodes": [[["stem_bn1", 0, 0, {}]]]}, {"class_name": "Add", "config": {"name": "reduction_add_2_stem_1", "trainable": true, "dtype": "float32"}, "name": "reduction_add_2_stem_1", "inbound_nodes": [[["reduction_left2_stem_1", 0, 0, {}], ["separable_conv_2_bn_reduction_right2_stem_1", 0, 0, {}]]]}, {"class_name": "AveragePooling2D", "config": {"name": "reduction_left3_stem_1", "trainable": true, "dtype": "float32", "pool_size": [3, 3], "padding": "valid", "strides": [2, 2], "data_format": "channels_last"}, "name": "reduction_left3_stem_1", "inbound_nodes": [[["reduction_pad_1_stem_1", 0, 0, {}]]]}, {"class_name": "BatchNormalization", "config": {"name": "separable_conv_2_bn_reduction_right3_stem_1", "trainable": true, "dtype": "float32", "axis": [3], "momentum": 0.9997, "epsilon": 0.001, "center": true, "scale": true, "beta_initializer": {"class_name": "Zeros", "config": {}}, "gamma_initializer": {"class_name": "Ones", "config": {}}, "moving_mean_initializer": {"class_name": "Zeros", "config": {}}, "moving_variance_initializer": {"class_name": "Ones", "config": {}}, "beta_regularizer": null, "gamma_regularizer": null, "beta_constraint": null, "gamma_constraint": null}, "name": "separable_conv_2_bn_reduction_right3_stem_1", "inbound_nodes": [[["separable_conv_2_reduction_right3_stem_1", 0, 0, {}]]]}, {"class_name": "AveragePooling2D", "config": {"name": "reduction_left4_stem_1", "trainable": true, "dtype": "float32", "pool_size": [3, 3], "padding": "same", "strides": [1, 1], "data_format": "channels_last"}, "name": "reduction_left4_stem_1", "inbound_nodes": [[["reduction_add_1_stem_1", 0, 0, {}]]]}, {"class_name": "BatchNormalization", "config": {"name": "separable_conv_2_bn_reduction_left4_stem_1", "trainable": true, "dtype": "float32", "axis": [3], "momentum": 0.9997, "epsilon": 0.001, "center": true, "scale": true, "beta_initializer": {"class_name": "Zeros", "config": {}}, "gamma_initializer": {"class_name": "Ones", "config": {}}, "moving_mean_initializer": {"class_name": "Zeros", "config": {}}, "moving_variance_initializer": {"class_name": "Ones", "config": {}}, "beta_regularizer": null, "gamma_regularizer": null, "beta_constraint": null, "gamma_constraint": null}, "name": "separable_conv_2_bn_reduction_left4_stem_1", "inbound_nodes": [[["separable_conv_2_reduction_left4_stem_1", 0, 0, {}]]]}, {"class_name": "MaxPooling2D", "config": {"name": "reduction_right5_stem_1", "trainable": true, "dtype": "float32", "pool_size": [3, 3], "padding": "valid", "strides": [2, 2], "data_format": "channels_last"}, "name": "reduction_right5_stem_1", "inbound_nodes": [[["reduction_pad_1_stem_1", 0, 0, {}]]]}, {"class_name": "ZeroPadding2D", "config": {"name": "zero_padding2d_6", "trainable": true, "dtype": "float32", "padding": [[0, 1], [0, 1]], "data_format": "channels_last"}, "name": "zero_padding2d_6", "inbound_nodes": [[["adjust_relu_1_stem_2", 0, 0, {}]]]}, {"class_name": "Add", "config": {"name": "reduction_add3_stem_1", "trainable": true, "dtype": "float32"}, "name": "reduction_add3_stem_1", "inbound_nodes": [[["reduction_left3_stem_1", 0, 0, {}], ["separable_conv_2_bn_reduction_right3_stem_1", 0, 0, {}]]]}, {"class_name": "Add", "config": {"name": "add", "trainable": true, "dtype": "float32"}, "name": "add", "inbound_nodes": [[["reduction_add_2_stem_1", 0, 0, {}], ["reduction_left4_stem_1", 0, 0, {}]]]}, {"class_name": "Add", "config": {"name": "reduction_add4_stem_1", "trainable": true, "dtype": "float32"}, "name": "reduction_add4_stem_1", "inbound_nodes": [[["separable_conv_2_bn_reduction_left4_stem_1", 0, 0, {}], ["reduction_right5_stem_1", 0, 0, {}]]]}, {"class_name": "Cropping2D", "config": {"name": "cropping2d", "trainable": true, "dtype": "float32", "cropping": [[1, 0], [1, 0]], "data_format": "channels_last"}, "name": "cropping2d", "inbound_nodes": [[["zero_padding2d_6", 0, 0, {}]]]}, {"class_name": "Concatenate", "config": {"name": "reduction_concat_stem_1", "trainable": true, "dtype": "float32", "axis": -1}, "name": "reduction_concat_stem_1", "inbound_nodes": [[["reduction_add_2_stem_1", 0, 0, {}], ["reduction_add3_stem_1", 0, 0, {}], ["add", 0, 0, {}], ["reduction_add4_stem_1", 0, 0, {}]]]}, {"class_name": "AveragePooling2D", "config": {"name": "adjust_avg_pool_1_stem_2", "trainable": true, "dtype": "float32", "pool_size": [1, 1], "padding": "valid", "strides": [2, 2], "data_format": "channels_last"}, "name": "adjust_avg_pool_1_stem_2", "inbound_nodes": [[["adjust_relu_1_stem_2", 0, 0, {}]]]}, {"class_name": "AveragePooling2D", "config": {"name": "adjust_avg_pool_2_stem_2", "trainable": true, "dtype": "float32", "pool_size": [1, 1], "padding": "valid", "strides": [2, 2], "data_format": "channels_last"}, "name": "adjust_avg_pool_2_stem_2", "inbound_nodes": [[["cropping2d", 0, 0, {}]]]}, {"class_name": "Activation", "config": {"name": "activation_11", "trainable": true, "dtype": "float32", "activation": "relu"}, "name": "activation_11", "inbound_nodes": [[["reduction_concat_stem_1", 0, 0, {}]]]}, {"class_name": "Conv2D", "config": {"name": "adjust_conv_1_stem_2", "trainable": true, "dtype": "float32", "filters": 11, "kernel_size": [1, 1], "strides": [1, 1], "padding": "same", "data_format": "channels_last", "dilation_rate": [1, 1], "groups": 1, "activation": "linear", "use_bias": false, "kernel_initializer": {"class_name": "HeNormal", "config": {"seed": null}}, "bias_initializer": {"class_name": "Zeros", "config": {}}, "kernel_regularizer": null, "bias_regularizer": null, "activity_regularizer": null, "kernel_constraint": null, "bias_constraint": null}, "name": "adjust_conv_1_stem_2", "inbound_nodes": [[["adjust_avg_pool_1_stem_2", 0, 0, {}]]]}, {"class_name": "Conv2D", "config": {"name": "adjust_conv_2_stem_2", "trainable": true, "dtype": "float32", "filters": 11, "kernel_size": [1, 1], "strides": [1, 1], "padding": "same", "data_format": "channels_last", "dilation_rate": [1, 1], "groups": 1, "activation": "linear", "use_bias": false, "kernel_initializer": {"class_name": "HeNormal", "config": {"seed": null}}, "bias_initializer": {"class_name": "Zeros", "config": {}}, "kernel_regularizer": null, "bias_regularizer": null, "activity_regularizer": null, "kernel_constraint": null, "bias_constraint": null}, "name": "adjust_conv_2_stem_2", "inbound_nodes": [[["adjust_avg_pool_2_stem_2", 0, 0, {}]]]}, {"class_name": "Conv2D", "config": {"name": "reduction_conv_1_stem_2", "trainable": true, "dtype": "float32", "filters": 22, "kernel_size": [1, 1], "strides": [1, 1], "padding": "same", "data_format": "channels_last", "dilation_rate": [1, 1], "groups": 1, "activation": "linear", "use_bias": false, "kernel_initializer": {"class_name": "HeNormal", "config": {"seed": null}}, "bias_initializer": {"class_name": "Zeros", "config": {}}, "kernel_regularizer": null, "bias_regularizer": null, "activity_regularizer": null, "kernel_constraint": null, "bias_constraint": null}, "name": "reduction_conv_1_stem_2", "inbound_nodes": [[["activation_11", 0, 0, {}]]]}, {"class_name": "Concatenate", "config": {"name": "concatenate", "trainable": true, "dtype": "float32", "axis": -1}, "name": "concatenate", "inbound_nodes": [[["adjust_conv_1_stem_2", 0, 0, {}], ["adjust_conv_2_stem_2", 0, 0, {}]]]}, {"class_name": "BatchNormalization", "config": {"name": "reduction_bn_1_stem_2", "trainable": true, "dtype": "float32", "axis": [3], "momentum": 0.9997, "epsilon": 0.001, "center": true, "scale": true, "beta_initializer": {"class_name": "Zeros", "config": {}}, "gamma_initializer": {"class_name": "Ones", "config": {}}, "moving_mean_initializer": {"class_name": "Zeros", "config": {}}, "moving_variance_initializer": {"class_name": "Ones", "config": {}}, "beta_regularizer": null, "gamma_regularizer": null, "beta_constraint": null, "gamma_constraint": null}, "name": "reduction_bn_1_stem_2", "inbound_nodes": [[["reduction_conv_1_stem_2", 0, 0, {}]]]}, {"class_name": "BatchNormalization", "config": {"name": "adjust_bn_stem_2", "trainable": true, "dtype": "float32", "axis": [3], "momentum": 0.9997, "epsilon": 0.001, "center": true, "scale": true, "beta_initializer": {"class_name": "Zeros", "config": {}}, "gamma_initializer": {"class_name": "Ones", "config": {}}, "moving_mean_initializer": {"class_name": "Zeros", "config": {}}, "moving_variance_initializer": {"class_name": "Ones", "config": {}}, "beta_regularizer": null, "gamma_regularizer": null, "beta_constraint": null, "gamma_constraint": null}, "name": "adjust_bn_stem_2", "inbound_nodes": [[["concatenate", 0, 0, {}]]]}, {"class_name": "Activation", "config": {"name": "activation_12", "trainable": true, "dtype": "float32", "activation": "relu"}, "name": "activation_12", "inbound_nodes": [[["reduction_bn_1_stem_2", 0, 0, {}]]]}, {"class_name": "Activation", "config": {"name": "activation_14", "trainable": true, "dtype": "float32", "activation": "relu"}, "name": "activation_14", "inbound_nodes": [[["adjust_bn_stem_2", 0, 0, {}]]]}, {"class_name": "ZeroPadding2D", "config": {"name": "separable_conv_1_pad_reduction_left1_stem_2", "trainable": true, "dtype": "float32", "padding": [[1, 2], [1, 2]], "data_format": "channels_last"}, "name": "separable_conv_1_pad_reduction_left1_stem_2", "inbound_nodes": [[["activation_12", 0, 0, {}]]]}, {"class_name": "ZeroPadding2D", "config": {"name": "separable_conv_1_pad_reduction_right1_stem_2", "trainable": true, "dtype": "float32", "padding": [[2, 3], [2, 3]], "data_format": "channels_last"}, "name": "separable_conv_1_pad_reduction_right1_stem_2", "inbound_nodes": [[["activation_14", 0, 0, {}]]]}, {"class_name": "SeparableConv2D", "config": {"name": "separable_conv_1_reduction_left1_stem_2", "trainable": true, "dtype": "float32", "filters": 22, "kernel_size": [5, 5], "strides": [2, 2], "padding": "valid", "data_format": "channels_last", "dilation_rate": [1, 1], "groups": 1, "activation": "linear", "use_bias": false, "kernel_initializer": {"class_name": "HeNormal", "config": {"seed": null}}, "bias_initializer": {"class_name": "Zeros", "config": {}, "shared_object_id": 175}, "kernel_regularizer": null, "bias_regularizer": null, "activity_regularizer": null, "kernel_constraint": null, "bias_constraint": null, "depth_multiplier": 1, "depthwise_initializer": {"class_name": "GlorotUniform", "config": {"seed": null}}, "pointwise_initializer": {"class_name": "GlorotUniform", "config": {"seed": null}}, "depthwise_regularizer": null, "pointwise_regularizer": null, "depthwise_constraint": null, "pointwise_constraint": null}, "name": "separable_conv_1_reduction_left1_stem_2", "inbound_nodes": [[["separable_conv_1_pad_reduction_left1_stem_2", 0, 0, {}]]]}, {"class_name": "SeparableConv2D", "config": {"name": "separable_conv_1_reduction_right1_stem_2", "trainable": true, "dtype": "float32", "filters": 22, "kernel_size": [7, 7], "strides": [2, 2], "padding": "valid", "data_format": "channels_last", "dilation_rate": [1, 1], "groups": 1, "activation": "linear", "use_bias": false, "kernel_initializer": {"class_name": "HeNormal", "config": {"seed": null}}, "bias_initializer": {"class_name": "Zeros", "config": {}, "shared_object_id": 180}, "kernel_regularizer": null, "bias_regularizer": null, "activity_regularizer": null, "kernel_constraint": null, "bias_constraint": null, "depth_multiplier": 1, "depthwise_initializer": {"class_name": "GlorotUniform", "config": {"seed": null}}, "pointwise_initializer": {"class_name": "GlorotUniform", "config": {"seed": null}}, "depthwise_regularizer": null, "pointwise_regularizer": null, "depthwise_constraint": null, "pointwise_constraint": null}, "name": "separable_conv_1_reduction_right1_stem_2", "inbound_nodes": [[["separable_conv_1_pad_reduction_right1_stem_2", 0, 0, {}]]]}, {"class_name": "BatchNormalization", "config": {"name": "separable_conv_1_bn_reduction_left1_stem_2", "trainable": true, "dtype": "float32", "axis": [3], "momentum": 0.9997, "epsilon": 0.001, "center": true, "scale": true, "beta_initializer": {"class_name": "Zeros", "config": {}}, "gamma_initializer": {"class_name": "Ones", "config": {}}, "moving_mean_initializer": {"class_name": "Zeros", "config": {}}, "moving_variance_initializer": {"class_name": "Ones", "config": {}}, "beta_regularizer": null, "gamma_regularizer": null, "beta_constraint": null, "gamma_constraint": null}, "name": "separable_conv_1_bn_reduction_left1_stem_2", "inbound_nodes": [[["separable_conv_1_reduction_left1_stem_2", 0, 0, {}]]]}, {"class_name": "BatchNormalization", "config": {"name": "separable_conv_1_bn_reduction_right1_stem_2", "trainable": true, "dtype": "float32", "axis": [3], "momentum": 0.9997, "epsilon": 0.001, "center": true, "scale": true, "beta_initializer": {"class_name": "Zeros", "config": {}}, "gamma_initializer": {"class_name": "Ones", "config": {}}, "moving_mean_initializer": {"class_name": "Zeros", "config": {}}, "moving_variance_initializer": {"class_name": "Ones", "config": {}}, "beta_regularizer": null, "gamma_regularizer": null, "beta_constraint": null, "gamma_constraint": null}, "name": "separable_conv_1_bn_reduction_right1_stem_2", "inbound_nodes": [[["separable_conv_1_reduction_right1_stem_2", 0, 0, {}]]]}, {"class_name": "Activation", "config": {"name": "activation_13", "trainable": true, "dtype": "float32", "activation": "relu"}, "name": "activation_13", "inbound_nodes": [[["separable_conv_1_bn_reduction_left1_stem_2", 0, 0, {}]]]}, {"class_name": "Activation", "config": {"name": "activation_15", "trainable": true, "dtype": "float32", "activation": "relu"}, "name": "activation_15", "inbound_nodes": [[["separable_conv_1_bn_reduction_right1_stem_2", 0, 0, {}]]]}, {"class_name": "SeparableConv2D", "config": {"name": "separable_conv_2_reduction_left1_stem_2", "trainable": true, "dtype": "float32", "filters": 22, "kernel_size": [5, 5], "strides": [1, 1], "padding": "same", "data_format": "channels_last", "dilation_rate": [1, 1], "groups": 1, "activation": "linear", "use_bias": false, "kernel_initializer": {"class_name": "HeNormal", "config": {"seed": null}}, "bias_initializer": {"class_name": "Zeros", "config": {}, "shared_object_id": 197}, "kernel_regularizer": null, "bias_regularizer": null, "activity_regularizer": null, "kernel_constraint": null, "bias_constraint": null, "depth_multiplier": 1, "depthwise_initializer": {"class_name": "GlorotUniform", "config": {"seed": null}}, "pointwise_initializer": {"class_name": "GlorotUniform", "config": {"seed": null}}, "depthwise_regularizer": null, "pointwise_regularizer": null, "depthwise_constraint": null, "pointwise_constraint": null}, "name": "separable_conv_2_reduction_left1_stem_2", "inbound_nodes": [[["activation_13", 0, 0, {}]]]}, {"class_name": "SeparableConv2D", "config": {"name": "separable_conv_2_reduction_right1_stem_2", "trainable": true, "dtype": "float32", "filters": 22, "kernel_size": [7, 7], "strides": [1, 1], "padding": "same", "data_format": "channels_last", "dilation_rate": [1, 1], "groups": 1, "activation": "linear", "use_bias": false, "kernel_initializer": {"class_name": "HeNormal", "config": {"seed": null}}, "bias_initializer": {"class_name": "Zeros", "config": {}, "shared_object_id": 202}, "kernel_regularizer": null, "bias_regularizer": null, "activity_regularizer": null, "kernel_constraint": null, "bias_constraint": null, "depth_multiplier": 1, "depthwise_initializer": {"class_name": "GlorotUniform", "config": {"seed": null}}, "pointwise_initializer": {"class_name": "GlorotUniform", "config": {"seed": null}}, "depthwise_regularizer": null, "pointwise_regularizer": null, "depthwise_constraint": null, "pointwise_constraint": null}, "name": "separable_conv_2_reduction_right1_stem_2", "inbound_nodes": [[["activation_15", 0, 0, {}]]]}, {"class_name": "Activation", "config": {"name": "activation_16", "trainable": true, "dtype": "float32", "activation": "relu"}, "name": "activation_16", "inbound_nodes": [[["adjust_bn_stem_2", 0, 0, {}]]]}, {"class_name": "BatchNormalization", "config": {"name": "separable_conv_2_bn_reduction_left1_stem_2", "trainable": true, "dtype": "float32", "axis": [3], "momentum": 0.9997, "epsilon": 0.001, "center": true, "scale": true, "beta_initializer": {"class_name": "Zeros", "config": {}}, "gamma_initializer": {"class_name": "Ones", "config": {}}, "moving_mean_initializer": {"class_name": "Zeros", "config": {}}, "moving_variance_initializer": {"class_name": "Ones", "config": {}}, "beta_regularizer": null, "gamma_regularizer": null, "beta_constraint": null, "gamma_constraint": null}, "name": "separable_conv_2_bn_reduction_left1_stem_2", "inbound_nodes": [[["separable_conv_2_reduction_left1_stem_2", 0, 0, {}]]]}, {"class_name": "BatchNormalization", "config": {"name": "separable_conv_2_bn_reduction_right1_stem_2", "trainable": true, "dtype": "float32", "axis": [3], "momentum": 0.9997, "epsilon": 0.001, "center": true, "scale": true, "beta_initializer": {"class_name": "Zeros", "config": {}}, "gamma_initializer": {"class_name": "Ones", "config": {}}, "moving_mean_initializer": {"class_name": "Zeros", "config": {}}, "moving_variance_initializer": {"class_name": "Ones", "config": {}}, "beta_regularizer": null, "gamma_regularizer": null, "beta_constraint": null, "gamma_constraint": null}, "name": "separable_conv_2_bn_reduction_right1_stem_2", "inbound_nodes": [[["separable_conv_2_reduction_right1_stem_2", 0, 0, {}]]]}, {"class_name": "ZeroPadding2D", "config": {"name": "separable_conv_1_pad_reduction_right2_stem_2", "trainable": true, "dtype": "float32", "padding": [[2, 3], [2, 3]], "data_format": "channels_last"}, "name": "separable_conv_1_pad_reduction_right2_stem_2", "inbound_nodes": [[["activation_16", 0, 0, {}]]]}, {"class_name": "Activation", "config": {"name": "activation_18", "trainable": true, "dtype": "float32", "activation": "relu"}, "name": "activation_18", "inbound_nodes": [[["adjust_bn_stem_2", 0, 0, {}]]]}, {"class_name": "Add", "config": {"name": "reduction_add_1_stem_2", "trainable": true, "dtype": "float32"}, "name": "reduction_add_1_stem_2", "inbound_nodes": [[["separable_conv_2_bn_reduction_left1_stem_2", 0, 0, {}], ["separable_conv_2_bn_reduction_right1_stem_2", 0, 0, {}]]]}, {"class_name": "SeparableConv2D", "config": {"name": "separable_conv_1_reduction_right2_stem_2", "trainable": true, "dtype": "float32", "filters": 22, "kernel_size": [7, 7], "strides": [2, 2], "padding": "valid", "data_format": "channels_last", "dilation_rate": [1, 1], "groups": 1, "activation": "linear", "use_bias": false, "kernel_initializer": {"class_name": "HeNormal", "config": {"seed": null}}, "bias_initializer": {"class_name": "Zeros", "config": {}, "shared_object_id": 221}, "kernel_regularizer": null, "bias_regularizer": null, "activity_regularizer": null, "kernel_constraint": null, "bias_constraint": null, "depth_multiplier": 1, "depthwise_initializer": {"class_name": "GlorotUniform", "config": {"seed": null}}, "pointwise_initializer": {"class_name": "GlorotUniform", "config": {"seed": null}}, "depthwise_regularizer": null, "pointwise_regularizer": null, "depthwise_constraint": null, "pointwise_constraint": null}, "name": "separable_conv_1_reduction_right2_stem_2", "inbound_nodes": [[["separable_conv_1_pad_reduction_right2_stem_2", 0, 0, {}]]]}, {"class_name": "ZeroPadding2D", "config": {"name": "separable_conv_1_pad_reduction_right3_stem_2", "trainable": true, "dtype": "float32", "padding": [[1, 2], [1, 2]], "data_format": "channels_last"}, "name": "separable_conv_1_pad_reduction_right3_stem_2", "inbound_nodes": [[["activation_18", 0, 0, {}]]]}, {"class_name": "Activation", "config": {"name": "activation_20", "trainable": true, "dtype": "float32", "activation": "relu"}, "name": "activation_20", "inbound_nodes": [[["reduction_add_1_stem_2", 0, 0, {}]]]}, {"class_name": "BatchNormalization", "config": {"name": "separable_conv_1_bn_reduction_right2_stem_2", "trainable": true, "dtype": "float32", "axis": [3], "momentum": 0.9997, "epsilon": 0.001, "center": true, "scale": true, "beta_initializer": {"class_name": "Zeros", "config": {}}, "gamma_initializer": {"class_name": "Ones", "config": {}}, "moving_mean_initializer": {"class_name": "Zeros", "config": {}}, "moving_variance_initializer": {"class_name": "Ones", "config": {}}, "beta_regularizer": null, "gamma_regularizer": null, "beta_constraint": null, "gamma_constraint": null}, "name": "separable_conv_1_bn_reduction_right2_stem_2", "inbound_nodes": [[["separable_conv_1_reduction_right2_stem_2", 0, 0, {}]]]}, {"class_name": "SeparableConv2D", "config": {"name": "separable_conv_1_reduction_right3_stem_2", "trainable": true, "dtype": "float32", "filters": 22, "kernel_size": [5, 5], "strides": [2, 2], "padding": "valid", "data_format": "channels_last", "dilation_rate": [1, 1], "groups": 1, "activation": "linear", "use_bias": false, "kernel_initializer": {"class_name": "HeNormal", "config": {"seed": null}}, "bias_initializer": {"class_name": "Zeros", "config": {}, "shared_object_id": 233}, "kernel_regularizer": null, "bias_regularizer": null, "activity_regularizer": null, "kernel_constraint": null, "bias_constraint": null, "depth_multiplier": 1, "depthwise_initializer": {"class_name": "GlorotUniform", "config": {"seed": null}}, "pointwise_initializer": {"class_name": "GlorotUniform", "config": {"seed": null}}, "depthwise_regularizer": null, "pointwise_regularizer": null, "depthwise_constraint": null, "pointwise_constraint": null}, "name": "separable_conv_1_reduction_right3_stem_2", "inbound_nodes": [[["separable_conv_1_pad_reduction_right3_stem_2", 0, 0, {}]]]}, {"class_name": "SeparableConv2D", "config": {"name": "separable_conv_1_reduction_left4_stem_2", "trainable": true, "dtype": "float32", "filters": 22, "kernel_size": [3, 3], "strides": [1, 1], "padding": "same", "data_format": "channels_last", "dilation_rate": [1, 1], "groups": 1, "activation": "linear", "use_bias": false, "kernel_initializer": {"class_name": "HeNormal", "config": {"seed": null}}, "bias_initializer": {"class_name": "Zeros", "config": {}, "shared_object_id": 238}, "kernel_regularizer": null, "bias_regularizer": null, "activity_regularizer": null, "kernel_constraint": null, "bias_constraint": null, "depth_multiplier": 1, "depthwise_initializer": {"class_name": "GlorotUniform", "config": {"seed": null}}, "pointwise_initializer": {"class_name": "GlorotUniform", "config": {"seed": null}}, "depthwise_regularizer": null, "pointwise_regularizer": null, "depthwise_constraint": null, "pointwise_constraint": null}, "name": "separable_conv_1_reduction_left4_stem_2", "inbound_nodes": [[["activation_20", 0, 0, {}]]]}, {"class_name": "Activation", "config": {"name": "activation_17", "trainable": true, "dtype": "float32", "activation": "relu"}, "name": "activation_17", "inbound_nodes": [[["separable_conv_1_bn_reduction_right2_stem_2", 0, 0, {}]]]}, {"class_name": "BatchNormalization", "config": {"name": "separable_conv_1_bn_reduction_right3_stem_2", "trainable": true, "dtype": "float32", "axis": [3], "momentum": 0.9997, "epsilon": 0.001, "center": true, "scale": true, "beta_initializer": {"class_name": "Zeros", "config": {}}, "gamma_initializer": {"class_name": "Ones", "config": {}}, "moving_mean_initializer": {"class_name": "Zeros", "config": {}}, "moving_variance_initializer": {"class_name": "Ones", "config": {}}, "beta_regularizer": null, "gamma_regularizer": null, "beta_constraint": null, "gamma_constraint": null}, "name": "separable_conv_1_bn_reduction_right3_stem_2", "inbound_nodes": [[["separable_conv_1_reduction_right3_stem_2", 0, 0, {}]]]}, {"class_name": "BatchNormalization", "config": {"name": "separable_conv_1_bn_reduction_left4_stem_2", "trainable": true, "dtype": "float32", "axis": [3], "momentum": 0.9997, "epsilon": 0.001, "center": true, "scale": true, "beta_initializer": {"class_name": "Zeros", "config": {}}, "gamma_initializer": {"class_name": "Ones", "config": {}}, "moving_mean_initializer": {"class_name": "Zeros", "config": {}}, "moving_variance_initializer": {"class_name": "Ones", "config": {}}, "beta_regularizer": null, "gamma_regularizer": null, "beta_constraint": null, "gamma_constraint": null}, "name": "separable_conv_1_bn_reduction_left4_stem_2", "inbound_nodes": [[["separable_conv_1_reduction_left4_stem_2", 0, 0, {}]]]}, {"class_name": "ZeroPadding2D", "config": {"name": "reduction_pad_1_stem_2", "trainable": true, "dtype": "float32", "padding": [[0, 1], [0, 1]], "data_format": "channels_last"}, "name": "reduction_pad_1_stem_2", "inbound_nodes": [[["reduction_bn_1_stem_2", 0, 0, {}]]]}, {"class_name": "SeparableConv2D", "config": {"name": "separable_conv_2_reduction_right2_stem_2", "trainable": true, "dtype": "float32", "filters": 22, "kernel_size": [7, 7], "strides": [1, 1], "padding": "same", "data_format": "channels_last", "dilation_rate": [1, 1], "groups": 1, "activation": "linear", "use_bias": false, "kernel_initializer": {"class_name": "HeNormal", "config": {"seed": null}}, "bias_initializer": {"class_name": "Zeros", "config": {}, "shared_object_id": 255}, "kernel_regularizer": null, "bias_regularizer": null, "activity_regularizer": null, "kernel_constraint": null, "bias_constraint": null, "depth_multiplier": 1, "depthwise_initializer": {"class_name": "GlorotUniform", "config": {"seed": null}}, "pointwise_initializer": {"class_name": "GlorotUniform", "config": {"seed": null}}, "depthwise_regularizer": null, "pointwise_regularizer": null, "depthwise_constraint": null, "pointwise_constraint": null}, "name": "separable_conv_2_reduction_right2_stem_2", "inbound_nodes": [[["activation_17", 0, 0, {}]]]}, {"class_name": "Activation", "config": {"name": "activation_19", "trainable": true, "dtype": "float32", "activation": "relu"}, "name": "activation_19", "inbound_nodes": [[["separable_conv_1_bn_reduction_right3_stem_2", 0, 0, {}]]]}, {"class_name": "Activation", "config": {"name": "activation_21", "trainable": true, "dtype": "float32", "activation": "relu"}, "name": "activation_21", "inbound_nodes": [[["separable_conv_1_bn_reduction_left4_stem_2", 0, 0, {}]]]}, {"class_name": "MaxPooling2D", "config": {"name": "reduction_left2_stem_2", "trainable": true, "dtype": "float32", "pool_size": [3, 3], "padding": "valid", "strides": [2, 2], "data_format": "channels_last"}, "name": "reduction_left2_stem_2", "inbound_nodes": [[["reduction_pad_1_stem_2", 0, 0, {}]]]}, {"class_name": "BatchNormalization", "config": {"name": "separable_conv_2_bn_reduction_right2_stem_2", "trainable": true, "dtype": "float32", "axis": [3], "momentum": 0.9997, "epsilon": 0.001, "center": true, "scale": true, "beta_initializer": {"class_name": "Zeros", "config": {}}, "gamma_initializer": {"class_name": "Ones", "config": {}}, "moving_mean_initializer": {"class_name": "Zeros", "config": {}}, "moving_variance_initializer": {"class_name": "Ones", "config": {}}, "beta_regularizer": null, "gamma_regularizer": null, "beta_constraint": null, "gamma_constraint": null}, "name": "separable_conv_2_bn_reduction_right2_stem_2", "inbound_nodes": [[["separable_conv_2_reduction_right2_stem_2", 0, 0, {}]]]}, {"class_name": "SeparableConv2D", "config": {"name": "separable_conv_2_reduction_right3_stem_2", "trainable": true, "dtype": "float32", "filters": 22, "kernel_size": [5, 5], "strides": [1, 1], "padding": "same", "data_format": "channels_last", "dilation_rate": [1, 1], "groups": 1, "activation": "linear", "use_bias": false, "kernel_initializer": {"class_name": "HeNormal", "config": {"seed": null}}, "bias_initializer": {"class_name": "Zeros", "config": {}, "shared_object_id": 268}, "kernel_regularizer": null, "bias_regularizer": null, "activity_regularizer": null, "kernel_constraint": null, "bias_constraint": null, "depth_multiplier": 1, "depthwise_initializer": {"class_name": "GlorotUniform", "config": {"seed": null}}, "pointwise_initializer": {"class_name": "GlorotUniform", "config": {"seed": null}}, "depthwise_regularizer": null, "pointwise_regularizer": null, "depthwise_constraint": null, "pointwise_constraint": null}, "name": "separable_conv_2_reduction_right3_stem_2", "inbound_nodes": [[["activation_19", 0, 0, {}]]]}, {"class_name": "SeparableConv2D", "config": {"name": "separable_conv_2_reduction_left4_stem_2", "trainable": true, "dtype": "float32", "filters": 22, "kernel_size": [3, 3], "strides": [1, 1], "padding": "same", "data_format": "channels_last", "dilation_rate": [1, 1], "groups": 1, "activation": "linear", "use_bias": false, "kernel_initializer": {"class_name": "HeNormal", "config": {"seed": null}}, "bias_initializer": {"class_name": "Zeros", "config": {}, "shared_object_id": 273}, "kernel_regularizer": null, "bias_regularizer": null, "activity_regularizer": null, "kernel_constraint": null, "bias_constraint": null, "depth_multiplier": 1, "depthwise_initializer": {"class_name": "GlorotUniform", "config": {"seed": null}}, "pointwise_initializer": {"class_name": "GlorotUniform", "config": {"seed": null}}, "depthwise_regularizer": null, "pointwise_regularizer": null, "depthwise_constraint": null, "pointwise_constraint": null}, "name": "separable_conv_2_reduction_left4_stem_2", "inbound_nodes": [[["activation_21", 0, 0, {}]]]}, {"class_name": "Activation", "config": {"name": "adjust_relu_1_0", "trainable": true, "dtype": "float32", "activation": "relu"}, "name": "adjust_relu_1_0", "inbound_nodes": [[["reduction_concat_stem_1", 0, 0, {}]]]}, {"class_name": "Add", "config": {"name": "reduction_add_2_stem_2", "trainable": true, "dtype": "float32"}, "name": "reduction_add_2_stem_2", "inbound_nodes": [[["reduction_left2_stem_2", 0, 0, {}], ["separable_conv_2_bn_reduction_right2_stem_2", 0, 0, {}]]]}, {"class_name": "AveragePooling2D", "config": {"name": "reduction_left3_stem_2", "trainable": true, "dtype": "float32", "pool_size": [3, 3], "padding": "valid", "strides": [2, 2], "data_format": "channels_last"}, "name": "reduction_left3_stem_2", "inbound_nodes": [[["reduction_pad_1_stem_2", 0, 0, {}]]]}, {"class_name": "BatchNormalization", "config": {"name": "separable_conv_2_bn_reduction_right3_stem_2", "trainable": true, "dtype": "float32", "axis": [3], "momentum": 0.9997, "epsilon": 0.001, "center": true, "scale": true, "beta_initializer": {"class_name": "Zeros", "config": {}}, "gamma_initializer": {"class_name": "Ones", "config": {}}, "moving_mean_initializer": {"class_name": "Zeros", "config": {}}, "moving_variance_initializer": {"class_name": "Ones", "config": {}}, "beta_regularizer": null, "gamma_regularizer": null, "beta_constraint": null, "gamma_constraint": null}, "name": "separable_conv_2_bn_reduction_right3_stem_2", "inbound_nodes": [[["separable_conv_2_reduction_right3_stem_2", 0, 0, {}]]]}, {"class_name": "AveragePooling2D", "config": {"name": "reduction_left4_stem_2", "trainable": true, "dtype": "float32", "pool_size": [3, 3], "padding": "same", "strides": [1, 1], "data_format": "channels_last"}, "name": "reduction_left4_stem_2", "inbound_nodes": [[["reduction_add_1_stem_2", 0, 0, {}]]]}, {"class_name": "BatchNormalization", "config": {"name": "separable_conv_2_bn_reduction_left4_stem_2", "trainable": true, "dtype": "float32", "axis": [3], "momentum": 0.9997, "epsilon": 0.001, "center": true, "scale": true, "beta_initializer": {"class_name": "Zeros", "config": {}}, "gamma_initializer": {"class_name": "Ones", "config": {}}, "moving_mean_initializer": {"class_name": "Zeros", "config": {}}, "moving_variance_initializer": {"class_name": "Ones", "config": {}}, "beta_regularizer": null, "gamma_regularizer": null, "beta_constraint": null, "gamma_constraint": null}, "name": "separable_conv_2_bn_reduction_left4_stem_2", "inbound_nodes": [[["separable_conv_2_reduction_left4_stem_2", 0, 0, {}]]]}, {"class_name": "MaxPooling2D", "config": {"name": "reduction_right5_stem_2", "trainable": true, "dtype": "float32", "pool_size": [3, 3], "padding": "valid", "strides": [2, 2], "data_format": "channels_last"}, "name": "reduction_right5_stem_2", "inbound_nodes": [[["reduction_pad_1_stem_2", 0, 0, {}]]]}, {"class_name": "ZeroPadding2D", "config": {"name": "zero_padding2d_7", "trainable": true, "dtype": "float32", "padding": [[0, 1], [0, 1]], "data_format": "channels_last"}, "name": "zero_padding2d_7", "inbound_nodes": [[["adjust_relu_1_0", 0, 0, {}]]]}, {"class_name": "Add", "config": {"name": "reduction_add3_stem_2", "trainable": true, "dtype": "float32"}, "name": "reduction_add3_stem_2", "inbound_nodes": [[["reduction_left3_stem_2", 0, 0, {}], ["separable_conv_2_bn_reduction_right3_stem_2", 0, 0, {}]]]}, {"class_name": "Add", "config": {"name": "add_1", "trainable": true, "dtype": "float32"}, "name": "add_1", "inbound_nodes": [[["reduction_add_2_stem_2", 0, 0, {}], ["reduction_left4_stem_2", 0, 0, {}]]]}, {"class_name": "Add", "config": {"name": "reduction_add4_stem_2", "trainable": true, "dtype": "float32"}, "name": "reduction_add4_stem_2", "inbound_nodes": [[["separable_conv_2_bn_reduction_left4_stem_2", 0, 0, {}], ["reduction_right5_stem_2", 0, 0, {}]]]}, {"class_name": "Cropping2D", "config": {"name": "cropping2d_1", "trainable": true, "dtype": "float32", "cropping": [[1, 0], [1, 0]], "data_format": "channels_last"}, "name": "cropping2d_1", "inbound_nodes": [[["zero_padding2d_7", 0, 0, {}]]]}, {"class_name": "Concatenate", "config": {"name": "reduction_concat_stem_2", "trainable": true, "dtype": "float32", "axis": -1}, "name": "reduction_concat_stem_2", "inbound_nodes": [[["reduction_add_2_stem_2", 0, 0, {}], ["reduction_add3_stem_2", 0, 0, {}], ["add_1", 0, 0, {}], ["reduction_add4_stem_2", 0, 0, {}]]]}, {"class_name": "AveragePooling2D", "config": {"name": "adjust_avg_pool_1_0", "trainable": true, "dtype": "float32", "pool_size": [1, 1], "padding": "valid", "strides": [2, 2], "data_format": "channels_last"}, "name": "adjust_avg_pool_1_0", "inbound_nodes": [[["adjust_relu_1_0", 0, 0, {}]]]}, {"class_name": "AveragePooling2D", "config": {"name": "adjust_avg_pool_2_0", "trainable": true, "dtype": "float32", "pool_size": [1, 1], "padding": "valid", "strides": [2, 2], "data_format": "channels_last"}, "name": "adjust_avg_pool_2_0", "inbound_nodes": [[["cropping2d_1", 0, 0, {}]]]}, {"class_name": "Conv2D", "config": {"name": "adjust_conv_1_0", "trainable": true, "dtype": "float32", "filters": 22, "kernel_size": [1, 1], "strides": [1, 1], "padding": "same", "data_format": "channels_last", "dilation_rate": [1, 1], "groups": 1, "activation": "linear", "use_bias": false, "kernel_initializer": {"class_name": "HeNormal", "config": {"seed": null}}, "bias_initializer": {"class_name": "Zeros", "config": {}}, "kernel_regularizer": null, "bias_regularizer": null, "activity_regularizer": null, "kernel_constraint": null, "bias_constraint": null}, "name": "adjust_conv_1_0", "inbound_nodes": [[["adjust_avg_pool_1_0", 0, 0, {}]]]}, {"class_name": "Conv2D", "config": {"name": "adjust_conv_2_0", "trainable": true, "dtype": "float32", "filters": 22, "kernel_size": [1, 1], "strides": [1, 1], "padding": "same", "data_format": "channels_last", "dilation_rate": [1, 1], "groups": 1, "activation": "linear", "use_bias": false, "kernel_initializer": {"class_name": "HeNormal", "config": {"seed": null}}, "bias_initializer": {"class_name": "Zeros", "config": {}}, "kernel_regularizer": null, "bias_regularizer": null, "activity_regularizer": null, "kernel_constraint": null, "bias_constraint": null}, "name": "adjust_conv_2_0", "inbound_nodes": [[["adjust_avg_pool_2_0", 0, 0, {}]]]}, {"class_name": "Activation", "config": {"name": "activation_22", "trainable": true, "dtype": "float32", "activation": "relu"}, "name": "activation_22", "inbound_nodes": [[["reduction_concat_stem_2", 0, 0, {}]]]}, {"class_name": "Concatenate", "config": {"name": "concatenate_1", "trainable": true, "dtype": "float32", "axis": -1}, "name": "concatenate_1", "inbound_nodes": [[["adjust_conv_1_0", 0, 0, {}], ["adjust_conv_2_0", 0, 0, {}]]]}, {"class_name": "Conv2D", "config": {"name": "normal_conv_1_0", "trainable": true, "dtype": "float32", "filters": 44, "kernel_size": [1, 1], "strides": [1, 1], "padding": "same", "data_format": "channels_last", "dilation_rate": [1, 1], "groups": 1, "activation": "linear", "use_bias": false, "kernel_initializer": {"class_name": "HeNormal", "config": {"seed": null}}, "bias_initializer": {"class_name": "Zeros", "config": {}}, "kernel_regularizer": null, "bias_regularizer": null, "activity_regularizer": null, "kernel_constraint": null, "bias_constraint": null}, "name": "normal_conv_1_0", "inbound_nodes": [[["activation_22", 0, 0, {}]]]}, {"class_name": "BatchNormalization", "config": {"name": "adjust_bn_0", "trainable": true, "dtype": "float32", "axis": [3], "momentum": 0.9997, "epsilon": 0.001, "center": true, "scale": true, "beta_initializer": {"class_name": "Zeros", "config": {}}, "gamma_initializer": {"class_name": "Ones", "config": {}}, "moving_mean_initializer": {"class_name": "Zeros", "config": {}}, "moving_variance_initializer": {"class_name": "Ones", "config": {}}, "beta_regularizer": null, "gamma_regularizer": null, "beta_constraint": null, "gamma_constraint": null}, "name": "adjust_bn_0", "inbound_nodes": [[["concatenate_1", 0, 0, {}]]]}, {"class_name": "BatchNormalization", "config": {"name": "normal_bn_1_0", "trainable": true, "dtype": "float32", "axis": [3], "momentum": 0.9997, "epsilon": 0.001, "center": true, "scale": true, "beta_initializer": {"class_name": "Zeros", "config": {}}, "gamma_initializer": {"class_name": "Ones", "config": {}}, "moving_mean_initializer": {"class_name": "Zeros", "config": {}}, "moving_variance_initializer": {"class_name": "Ones", "config": {}}, "beta_regularizer": null, "gamma_regularizer": null, "beta_constraint": null, "gamma_constraint": null}, "name": "normal_bn_1_0", "inbound_nodes": [[["normal_conv_1_0", 0, 0, {}]]]}, {"class_name": "Activation", "config": {"name": "activation_23", "trainable": true, "dtype": "float32", "activation": "relu"}, "name": "activation_23", "inbound_nodes": [[["normal_bn_1_0", 0, 0, {}]]]}, {"class_name": "Activation", "config": {"name": "activation_25", "trainable": true, "dtype": "float32", "activation": "relu"}, "name": "activation_25", "inbound_nodes": [[["adjust_bn_0", 0, 0, {}]]]}, {"class_name": "Activation", "config": {"name": "activation_27", "trainable": true, "dtype": "float32", "activation": "relu"}, "name": "activation_27", "inbound_nodes": [[["adjust_bn_0", 0, 0, {}]]]}, {"class_name": "Activation", "config": {"name": "activation_29", "trainable": true, "dtype": "float32", "activation": "relu"}, "name": "activation_29", "inbound_nodes": [[["adjust_bn_0", 0, 0, {}]]]}, {"class_name": "Activation", "config": {"name": "activation_31", "trainable": true, "dtype": "float32", "activation": "relu"}, "name": "activation_31", "inbound_nodes": [[["normal_bn_1_0", 0, 0, {}]]]}, {"class_name": "SeparableConv2D", "config": {"name": "separable_conv_1_normal_left1_0", "trainable": true, "dtype": "float32", "filters": 44, "kernel_size": [5, 5], "strides": [1, 1], "padding": "same", "data_format": "channels_last", "dilation_rate": [1, 1], "groups": 1, "activation": "linear", "use_bias": false, "kernel_initializer": {"class_name": "HeNormal", "config": {"seed": null}}, "bias_initializer": {"class_name": "Zeros", "config": {}, "shared_object_id": 327}, "kernel_regularizer": null, "bias_regularizer": null, "activity_regularizer": null, "kernel_constraint": null, "bias_constraint": null, "depth_multiplier": 1, "depthwise_initializer": {"class_name": "GlorotUniform", "config": {"seed": null}}, "pointwise_initializer": {"class_name": "GlorotUniform", "config": {"seed": null}}, "depthwise_regularizer": null, "pointwise_regularizer": null, "depthwise_constraint": null, "pointwise_constraint": null}, "name": "separable_conv_1_normal_left1_0", "inbound_nodes": [[["activation_23", 0, 0, {}]]]}, {"class_name": "SeparableConv2D", "config": {"name": "separable_conv_1_normal_right1_0", "trainable": true, "dtype": "float32", "filters": 44, "kernel_size": [3, 3], "strides": [1, 1], "padding": "same", "data_format": "channels_last", "dilation_rate": [1, 1], "groups": 1, "activation": "linear", "use_bias": false, "kernel_initializer": {"class_name": "HeNormal", "config": {"seed": null}}, "bias_initializer": {"class_name": "Zeros", "config": {}, "shared_object_id": 332}, "kernel_regularizer": null, "bias_regularizer": null, "activity_regularizer": null, "kernel_constraint": null, "bias_constraint": null, "depth_multiplier": 1, "depthwise_initializer": {"class_name": "GlorotUniform", "config": {"seed": null}}, "pointwise_initializer": {"class_name": "GlorotUniform", "config": {"seed": null}}, "depthwise_regularizer": null, "pointwise_regularizer": null, "depthwise_constraint": null, "pointwise_constraint": null}, "name": "separable_conv_1_normal_right1_0", "inbound_nodes": [[["activation_25", 0, 0, {}]]]}, {"class_name": "SeparableConv2D", "config": {"name": "separable_conv_1_normal_left2_0", "trainable": true, "dtype": "float32", "filters": 44, "kernel_size": [5, 5], "strides": [1, 1], "padding": "same", "data_format": "channels_last", "dilation_rate": [1, 1], "groups": 1, "activation": "linear", "use_bias": false, "kernel_initializer": {"class_name": "HeNormal", "config": {"seed": null}}, "bias_initializer": {"class_name": "Zeros", "config": {}, "shared_object_id": 337}, "kernel_regularizer": null, "bias_regularizer": null, "activity_regularizer": null, "kernel_constraint": null, "bias_constraint": null, "depth_multiplier": 1, "depthwise_initializer": {"class_name": "GlorotUniform", "config": {"seed": null}}, "pointwise_initializer": {"class_name": "GlorotUniform", "config": {"seed": null}}, "depthwise_regularizer": null, "pointwise_regularizer": null, "depthwise_constraint": null, "pointwise_constraint": null}, "name": "separable_conv_1_normal_left2_0", "inbound_nodes": [[["activation_27", 0, 0, {}]]]}, {"class_name": "SeparableConv2D", "config": {"name": "separable_conv_1_normal_right2_0", "trainable": true, "dtype": "float32", "filters": 44, "kernel_size": [3, 3], "strides": [1, 1], "padding": "same", "data_format": "channels_last", "dilation_rate": [1, 1], "groups": 1, "activation": "linear", "use_bias": false, "kernel_initializer": {"class_name": "HeNormal", "config": {"seed": null}}, "bias_initializer": {"class_name": "Zeros", "config": {}, "shared_object_id": 342}, "kernel_regularizer": null, "bias_regularizer": null, "activity_regularizer": null, "kernel_constraint": null, "bias_constraint": null, "depth_multiplier": 1, "depthwise_initializer": {"class_name": "GlorotUniform", "config": {"seed": null}}, "pointwise_initializer": {"class_name": "GlorotUniform", "config": {"seed": null}}, "depthwise_regularizer": null, "pointwise_regularizer": null, "depthwise_constraint": null, "pointwise_constraint": null}, "name": "separable_conv_1_normal_right2_0", "inbound_nodes": [[["activation_29", 0, 0, {}]]]}, {"class_name": "SeparableConv2D", "config": {"name": "separable_conv_1_normal_left5_0", "trainable": true, "dtype": "float32", "filters": 44, "kernel_size": [3, 3], "strides": [1, 1], "padding": "same", "data_format": "channels_last", "dilation_rate": [1, 1], "groups": 1, "activation": "linear", "use_bias": false, "kernel_initializer": {"class_name": "HeNormal", "config": {"seed": null}}, "bias_initializer": {"class_name": "Zeros", "config": {}, "shared_object_id": 347}, "kernel_regularizer": null, "bias_regularizer": null, "activity_regularizer": null, "kernel_constraint": null, "bias_constraint": null, "depth_multiplier": 1, "depthwise_initializer": {"class_name": "GlorotUniform", "config": {"seed": null}}, "pointwise_initializer": {"class_name": "GlorotUniform", "config": {"seed": null}}, "depthwise_regularizer": null, "pointwise_regularizer": null, "depthwise_constraint": null, "pointwise_constraint": null}, "name": "separable_conv_1_normal_left5_0", "inbound_nodes": [[["activation_31", 0, 0, {}]]]}, {"class_name": "BatchNormalization", "config": {"name": "separable_conv_1_bn_normal_left1_0", "trainable": true, "dtype": "float32", "axis": [3], "momentum": 0.9997, "epsilon": 0.001, "center": true, "scale": true, "beta_initializer": {"class_name": "Zeros", "config": {}}, "gamma_initializer": {"class_name": "Ones", "config": {}}, "moving_mean_initializer": {"class_name": "Zeros", "config": {}}, "moving_variance_initializer": {"class_name": "Ones", "config": {}}, "beta_regularizer": null, "gamma_regularizer": null, "beta_constraint": null, "gamma_constraint": null}, "name": "separable_conv_1_bn_normal_left1_0", "inbound_nodes": [[["separable_conv_1_normal_left1_0", 0, 0, {}]]]}, {"class_name": "BatchNormalization", "config": {"name": "separable_conv_1_bn_normal_right1_0", "trainable": true, "dtype": "float32", "axis": [3], "momentum": 0.9997, "epsilon": 0.001, "center": true, "scale": true, "beta_initializer": {"class_name": "Zeros", "config": {}}, "gamma_initializer": {"class_name": "Ones", "config": {}}, "moving_mean_initializer": {"class_name": "Zeros", "config": {}}, "moving_variance_initializer": {"class_name": "Ones", "config": {}}, "beta_regularizer": null, "gamma_regularizer": null, "beta_constraint": null, "gamma_constraint": null}, "name": "separable_conv_1_bn_normal_right1_0", "inbound_nodes": [[["separable_conv_1_normal_right1_0", 0, 0, {}]]]}, {"class_name": "BatchNormalization", "config": {"name": "separable_conv_1_bn_normal_left2_0", "trainable": true, "dtype": "float32", "axis": [3], "momentum": 0.9997, "epsilon": 0.001, "center": true, "scale": true, "beta_initializer": {"class_name": "Zeros", "config": {}}, "gamma_initializer": {"class_name": "Ones", "config": {}}, "moving_mean_initializer": {"class_name": "Zeros", "config": {}}, "moving_variance_initializer": {"class_name": "Ones", "config": {}}, "beta_regularizer": null, "gamma_regularizer": null, "beta_constraint": null, "gamma_constraint": null}, "name": "separable_conv_1_bn_normal_left2_0", "inbound_nodes": [[["separable_conv_1_normal_left2_0", 0, 0, {}]]]}, {"class_name": "BatchNormalization", "config": {"name": "separable_conv_1_bn_normal_right2_0", "trainable": true, "dtype": "float32", "axis": [3], "momentum": 0.9997, "epsilon": 0.001, "center": true, "scale": true, "beta_initializer": {"class_name": "Zeros", "config": {}}, "gamma_initializer": {"class_name": "Ones", "config": {}}, "moving_mean_initializer": {"class_name": "Zeros", "config": {}}, "moving_variance_initializer": {"class_name": "Ones", "config": {}}, "beta_regularizer": null, "gamma_regularizer": null, "beta_constraint": null, "gamma_constraint": null}, "name": "separable_conv_1_bn_normal_right2_0", "inbound_nodes": [[["separable_conv_1_normal_right2_0", 0, 0, {}]]]}, {"class_name": "BatchNormalization", "config": {"name": "separable_conv_1_bn_normal_left5_0", "trainable": true, "dtype": "float32", "axis": [3], "momentum": 0.9997, "epsilon": 0.001, "center": true, "scale": true, "beta_initializer": {"class_name": "Zeros", "config": {}}, "gamma_initializer": {"class_name": "Ones", "config": {}}, "moving_mean_initializer": {"class_name": "Zeros", "config": {}}, "moving_variance_initializer": {"class_name": "Ones", "config": {}}, "beta_regularizer": null, "gamma_regularizer": null, "beta_constraint": null, "gamma_constraint": null}, "name": "separable_conv_1_bn_normal_left5_0", "inbound_nodes": [[["separable_conv_1_normal_left5_0", 0, 0, {}]]]}, {"class_name": "Activation", "config": {"name": "activation_24", "trainable": true, "dtype": "float32", "activation": "relu"}, "name": "activation_24", "inbound_nodes": [[["separable_conv_1_bn_normal_left1_0", 0, 0, {}]]]}, {"class_name": "Activation", "config": {"name": "activation_26", "trainable": true, "dtype": "float32", "activation": "relu"}, "name": "activation_26", "inbound_nodes": [[["separable_conv_1_bn_normal_right1_0", 0, 0, {}]]]}, {"class_name": "Activation", "config": {"name": "activation_28", "trainable": true, "dtype": "float32", "activation": "relu"}, "name": "activation_28", "inbound_nodes": [[["separable_conv_1_bn_normal_left2_0", 0, 0, {}]]]}, {"class_name": "Activation", "config": {"name": "activation_30", "trainable": true, "dtype": "float32", "activation": "relu"}, "name": "activation_30", "inbound_nodes": [[["separable_conv_1_bn_normal_right2_0", 0, 0, {}]]]}, {"class_name": "Activation", "config": {"name": "activation_32", "trainable": true, "dtype": "float32", "activation": "relu"}, "name": "activation_32", "inbound_nodes": [[["separable_conv_1_bn_normal_left5_0", 0, 0, {}]]]}, {"class_name": "SeparableConv2D", "config": {"name": "separable_conv_2_normal_left1_0", "trainable": true, "dtype": "float32", "filters": 44, "kernel_size": [5, 5], "strides": [1, 1], "padding": "same", "data_format": "channels_last", "dilation_rate": [1, 1], "groups": 1, "activation": "linear", "use_bias": false, "kernel_initializer": {"class_name": "HeNormal", "config": {"seed": null}}, "bias_initializer": {"class_name": "Zeros", "config": {}, "shared_object_id": 382}, "kernel_regularizer": null, "bias_regularizer": null, "activity_regularizer": null, "kernel_constraint": null, "bias_constraint": null, "depth_multiplier": 1, "depthwise_initializer": {"class_name": "GlorotUniform", "config": {"seed": null}}, "pointwise_initializer": {"class_name": "GlorotUniform", "config": {"seed": null}}, "depthwise_regularizer": null, "pointwise_regularizer": null, "depthwise_constraint": null, "pointwise_constraint": null}, "name": "separable_conv_2_normal_left1_0", "inbound_nodes": [[["activation_24", 0, 0, {}]]]}, {"class_name": "SeparableConv2D", "config": {"name": "separable_conv_2_normal_right1_0", "trainable": true, "dtype": "float32", "filters": 44, "kernel_size": [3, 3], "strides": [1, 1], "padding": "same", "data_format": "channels_last", "dilation_rate": [1, 1], "groups": 1, "activation": "linear", "use_bias": false, "kernel_initializer": {"class_name": "HeNormal", "config": {"seed": null}}, "bias_initializer": {"class_name": "Zeros", "config": {}, "shared_object_id": 387}, "kernel_regularizer": null, "bias_regularizer": null, "activity_regularizer": null, "kernel_constraint": null, "bias_constraint": null, "depth_multiplier": 1, "depthwise_initializer": {"class_name": "GlorotUniform", "config": {"seed": null}}, "pointwise_initializer": {"class_name": "GlorotUniform", "config": {"seed": null}}, "depthwise_regularizer": null, "pointwise_regularizer": null, "depthwise_constraint": null, "pointwise_constraint": null}, "name": "separable_conv_2_normal_right1_0", "inbound_nodes": [[["activation_26", 0, 0, {}]]]}, {"class_name": "SeparableConv2D", "config": {"name": "separable_conv_2_normal_left2_0", "trainable": true, "dtype": "float32", "filters": 44, "kernel_size": [5, 5], "strides": [1, 1], "padding": "same", "data_format": "channels_last", "dilation_rate": [1, 1], "groups": 1, "activation": "linear", "use_bias": false, "kernel_initializer": {"class_name": "HeNormal", "config": {"seed": null}}, "bias_initializer": {"class_name": "Zeros", "config": {}, "shared_object_id": 392}, "kernel_regularizer": null, "bias_regularizer": null, "activity_regularizer": null, "kernel_constraint": null, "bias_constraint": null, "depth_multiplier": 1, "depthwise_initializer": {"class_name": "GlorotUniform", "config": {"seed": null}}, "pointwise_initializer": {"class_name": "GlorotUniform", "config": {"seed": null}}, "depthwise_regularizer": null, "pointwise_regularizer": null, "depthwise_constraint": null, "pointwise_constraint": null}, "name": "separable_conv_2_normal_left2_0", "inbound_nodes": [[["activation_28", 0, 0, {}]]]}, {"class_name": "SeparableConv2D", "config": {"name": "separable_conv_2_normal_right2_0", "trainable": true, "dtype": "float32", "filters": 44, "kernel_size": [3, 3], "strides": [1, 1], "padding": "same", "data_format": "channels_last", "dilation_rate": [1, 1], "groups": 1, "activation": "linear", "use_bias": false, "kernel_initializer": {"class_name": "HeNormal", "config": {"seed": null}}, "bias_initializer": {"class_name": "Zeros", "config": {}, "shared_object_id": 397}, "kernel_regularizer": null, "bias_regularizer": null, "activity_regularizer": null, "kernel_constraint": null, "bias_constraint": null, "depth_multiplier": 1, "depthwise_initializer": {"class_name": "GlorotUniform", "config": {"seed": null}}, "pointwise_initializer": {"class_name": "GlorotUniform", "config": {"seed": null}}, "depthwise_regularizer": null, "pointwise_regularizer": null, "depthwise_constraint": null, "pointwise_constraint": null}, "name": "separable_conv_2_normal_right2_0", "inbound_nodes": [[["activation_30", 0, 0, {}]]]}, {"class_name": "SeparableConv2D", "config": {"name": "separable_conv_2_normal_left5_0", "trainable": true, "dtype": "float32", "filters": 44, "kernel_size": [3, 3], "strides": [1, 1], "padding": "same", "data_format": "channels_last", "dilation_rate": [1, 1], "groups": 1, "activation": "linear", "use_bias": false, "kernel_initializer": {"class_name": "HeNormal", "config": {"seed": null}}, "bias_initializer": {"class_name": "Zeros", "config": {}, "shared_object_id": 402}, "kernel_regularizer": null, "bias_regularizer": null, "activity_regularizer": null, "kernel_constraint": null, "bias_constraint": null, "depth_multiplier": 1, "depthwise_initializer": {"class_name": "GlorotUniform", "config": {"seed": null}}, "pointwise_initializer": {"class_name": "GlorotUniform", "config": {"seed": null}}, "depthwise_regularizer": null, "pointwise_regularizer": null, "depthwise_constraint": null, "pointwise_constraint": null}, "name": "separable_conv_2_normal_left5_0", "inbound_nodes": [[["activation_32", 0, 0, {}]]]}, {"class_name": "BatchNormalization", "config": {"name": "separable_conv_2_bn_normal_left1_0", "trainable": true, "dtype": "float32", "axis": [3], "momentum": 0.9997, "epsilon": 0.001, "center": true, "scale": true, "beta_initializer": {"class_name": "Zeros", "config": {}}, "gamma_initializer": {"class_name": "Ones", "config": {}}, "moving_mean_initializer": {"class_name": "Zeros", "config": {}}, "moving_variance_initializer": {"class_name": "Ones", "config": {}}, "beta_regularizer": null, "gamma_regularizer": null, "beta_constraint": null, "gamma_constraint": null}, "name": "separable_conv_2_bn_normal_left1_0", "inbound_nodes": [[["separable_conv_2_normal_left1_0", 0, 0, {}]]]}, {"class_name": "BatchNormalization", "config": {"name": "separable_conv_2_bn_normal_right1_0", "trainable": true, "dtype": "float32", "axis": [3], "momentum": 0.9997, "epsilon": 0.001, "center": true, "scale": true, "beta_initializer": {"class_name": "Zeros", "config": {}}, "gamma_initializer": {"class_name": "Ones", "config": {}}, "moving_mean_initializer": {"class_name": "Zeros", "config": {}}, "moving_variance_initializer": {"class_name": "Ones", "config": {}}, "beta_regularizer": null, "gamma_regularizer": null, "beta_constraint": null, "gamma_constraint": null}, "name": "separable_conv_2_bn_normal_right1_0", "inbound_nodes": [[["separable_conv_2_normal_right1_0", 0, 0, {}]]]}, {"class_name": "BatchNormalization", "config": {"name": "separable_conv_2_bn_normal_left2_0", "trainable": true, "dtype": "float32", "axis": [3], "momentum": 0.9997, "epsilon": 0.001, "center": true, "scale": true, "beta_initializer": {"class_name": "Zeros", "config": {}}, "gamma_initializer": {"class_name": "Ones", "config": {}}, "moving_mean_initializer": {"class_name": "Zeros", "config": {}}, "moving_variance_initializer": {"class_name": "Ones", "config": {}}, "beta_regularizer": null, "gamma_regularizer": null, "beta_constraint": null, "gamma_constraint": null}, "name": "separable_conv_2_bn_normal_left2_0", "inbound_nodes": [[["separable_conv_2_normal_left2_0", 0, 0, {}]]]}, {"class_name": "BatchNormalization", "config": {"name": "separable_conv_2_bn_normal_right2_0", "trainable": true, "dtype": "float32", "axis": [3], "momentum": 0.9997, "epsilon": 0.001, "center": true, "scale": true, "beta_initializer": {"class_name": "Zeros", "config": {}}, "gamma_initializer": {"class_name": "Ones", "config": {}}, "moving_mean_initializer": {"class_name": "Zeros", "config": {}}, "moving_variance_initializer": {"class_name": "Ones", "config": {}}, "beta_regularizer": null, "gamma_regularizer": null, "beta_constraint": null, "gamma_constraint": null}, "name": "separable_conv_2_bn_normal_right2_0", "inbound_nodes": [[["separable_conv_2_normal_right2_0", 0, 0, {}]]]}, {"class_name": "AveragePooling2D", "config": {"name": "normal_left3_0", "trainable": true, "dtype": "float32", "pool_size": [3, 3], "padding": "same", "strides": [1, 1], "data_format": "channels_last"}, "name": "normal_left3_0", "inbound_nodes": [[["normal_bn_1_0", 0, 0, {}]]]}, {"class_name": "AveragePooling2D", "config": {"name": "normal_left4_0", "trainable": true, "dtype": "float32", "pool_size": [3, 3], "padding": "same", "strides": [1, 1], "data_format": "channels_last"}, "name": "normal_left4_0", "inbound_nodes": [[["adjust_bn_0", 0, 0, {}]]]}, {"class_name": "AveragePooling2D", "config": {"name": "normal_right4_0", "trainable": true, "dtype": "float32", "pool_size": [3, 3], "padding": "same", "strides": [1, 1], "data_format": "channels_last"}, "name": "normal_right4_0", "inbound_nodes": [[["adjust_bn_0", 0, 0, {}]]]}, {"class_name": "BatchNormalization", "config": {"name": "separable_conv_2_bn_normal_left5_0", "trainable": true, "dtype": "float32", "axis": [3], "momentum": 0.9997, "epsilon": 0.001, "center": true, "scale": true, "beta_initializer": {"class_name": "Zeros", "config": {}}, "gamma_initializer": {"class_name": "Ones", "config": {}}, "moving_mean_initializer": {"class_name": "Zeros", "config": {}}, "moving_variance_initializer": {"class_name": "Ones", "config": {}}, "beta_regularizer": null, "gamma_regularizer": null, "beta_constraint": null, "gamma_constraint": null}, "name": "separable_conv_2_bn_normal_left5_0", "inbound_nodes": [[["separable_conv_2_normal_left5_0", 0, 0, {}]]]}, {"class_name": "Add", "config": {"name": "normal_add_1_0", "trainable": true, "dtype": "float32"}, "name": "normal_add_1_0", "inbound_nodes": [[["separable_conv_2_bn_normal_left1_0", 0, 0, {}], ["separable_conv_2_bn_normal_right1_0", 0, 0, {}]]]}, {"class_name": "Add", "config": {"name": "normal_add_2_0", "trainable": true, "dtype": "float32"}, "name": "normal_add_2_0", "inbound_nodes": [[["separable_conv_2_bn_normal_left2_0", 0, 0, {}], ["separable_conv_2_bn_normal_right2_0", 0, 0, {}]]]}, {"class_name": "Add", "config": {"name": "normal_add_3_0", "trainable": true, "dtype": "float32"}, "name": "normal_add_3_0", "inbound_nodes": [[["normal_left3_0", 0, 0, {}], ["adjust_bn_0", 0, 0, {}]]]}, {"class_name": "Add", "config": {"name": "normal_add_4_0", "trainable": true, "dtype": "float32"}, "name": "normal_add_4_0", "inbound_nodes": [[["normal_left4_0", 0, 0, {}], ["normal_right4_0", 0, 0, {}]]]}, {"class_name": "Add", "config": {"name": "normal_add_5_0", "trainable": true, "dtype": "float32"}, "name": "normal_add_5_0", "inbound_nodes": [[["separable_conv_2_bn_normal_left5_0", 0, 0, {}], ["normal_bn_1_0", 0, 0, {}]]]}, {"class_name": "Concatenate", "config": {"name": "normal_concat_0", "trainable": true, "dtype": "float32", "axis": -1}, "name": "normal_concat_0", "inbound_nodes": [[["adjust_bn_0", 0, 0, {}], ["normal_add_1_0", 0, 0, {}], ["normal_add_2_0", 0, 0, {}], ["normal_add_3_0", 0, 0, {}], ["normal_add_4_0", 0, 0, {}], ["normal_add_5_0", 0, 0, {}]]]}, {"class_name": "Activation", "config": {"name": "activation_33", "trainable": true, "dtype": "float32", "activation": "relu"}, "name": "activation_33", "inbound_nodes": [[["reduction_concat_stem_2", 0, 0, {}]]]}, {"class_name": "Activation", "config": {"name": "activation_34", "trainable": true, "dtype": "float32", "activation": "relu"}, "name": "activation_34", "inbound_nodes": [[["normal_concat_0", 0, 0, {}]]]}, {"class_name": "Conv2D", "config": {"name": "adjust_conv_projection_1", "trainable": true, "dtype": "float32", "filters": 44, "kernel_size": [1, 1], "strides": [1, 1], "padding": "same", "data_format": "channels_last", "dilation_rate": [1, 1], "groups": 1, "activation": "linear", "use_bias": false, "kernel_initializer": {"class_name": "HeNormal", "config": {"seed": null}}, "bias_initializer": {"class_name": "Zeros", "config": {}}, "kernel_regularizer": null, "bias_regularizer": null, "activity_regularizer": null, "kernel_constraint": null, "bias_constraint": null}, "name": "adjust_conv_projection_1", "inbound_nodes": [[["activation_33", 0, 0, {}]]]}, {"class_name": "Conv2D", "config": {"name": "normal_conv_1_1", "trainable": true, "dtype": "float32", "filters": 44, "kernel_size": [1, 1], "strides": [1, 1], "padding": "same", "data_format": "channels_last", "dilation_rate": [1, 1], "groups": 1, "activation": "linear", "use_bias": false, "kernel_initializer": {"class_name": "HeNormal", "config": {"seed": null}}, "bias_initializer": {"class_name": "Zeros", "config": {}}, "kernel_regularizer": null, "bias_regularizer": null, "activity_regularizer": null, "kernel_constraint": null, "bias_constraint": null}, "name": "normal_conv_1_1", "inbound_nodes": [[["activation_34", 0, 0, {}]]]}, {"class_name": "BatchNormalization", "config": {"name": "adjust_bn_1", "trainable": true, "dtype": "float32", "axis": [3], "momentum": 0.9997, "epsilon": 0.001, "center": true, "scale": true, "beta_initializer": {"class_name": "Zeros", "config": {}}, "gamma_initializer": {"class_name": "Ones", "config": {}}, "moving_mean_initializer": {"class_name": "Zeros", "config": {}}, "moving_variance_initializer": {"class_name": "Ones", "config": {}}, "beta_regularizer": null, "gamma_regularizer": null, "beta_constraint": null, "gamma_constraint": null}, "name": "adjust_bn_1", "inbound_nodes": [[["adjust_conv_projection_1", 0, 0, {}]]]}, {"class_name": "BatchNormalization", "config": {"name": "normal_bn_1_1", "trainable": true, "dtype": "float32", "axis": [3], "momentum": 0.9997, "epsilon": 0.001, "center": true, "scale": true, "beta_initializer": {"class_name": "Zeros", "config": {}}, "gamma_initializer": {"class_name": "Ones", "config": {}}, "moving_mean_initializer": {"class_name": "Zeros", "config": {}}, "moving_variance_initializer": {"class_name": "Ones", "config": {}}, "beta_regularizer": null, "gamma_regularizer": null, "beta_constraint": null, "gamma_constraint": null}, "name": "normal_bn_1_1", "inbound_nodes": [[["normal_conv_1_1", 0, 0, {}]]]}, {"class_name": "Activation", "config": {"name": "activation_35", "trainable": true, "dtype": "float32", "activation": "relu"}, "name": "activation_35", "inbound_nodes": [[["normal_bn_1_1", 0, 0, {}]]]}, {"class_name": "Activation", "config": {"name": "activation_37", "trainable": true, "dtype": "float32", "activation": "relu"}, "name": "activation_37", "inbound_nodes": [[["adjust_bn_1", 0, 0, {}]]]}, {"class_name": "Activation", "config": {"name": "activation_39", "trainable": true, "dtype": "float32", "activation": "relu"}, "name": "activation_39", "inbound_nodes": [[["adjust_bn_1", 0, 0, {}]]]}, {"class_name": "Activation", "config": {"name": "activation_41", "trainable": true, "dtype": "float32", "activation": "relu"}, "name": "activation_41", "inbound_nodes": [[["adjust_bn_1", 0, 0, {}]]]}, {"class_name": "Activation", "config": {"name": "activation_43", "trainable": true, "dtype": "float32", "activation": "relu"}, "name": "activation_43", "inbound_nodes": [[["normal_bn_1_1", 0, 0, {}]]]}, {"class_name": "SeparableConv2D", "config": {"name": "separable_conv_1_normal_left1_1", "trainable": true, "dtype": "float32", "filters": 44, "kernel_size": [5, 5], "strides": [1, 1], "padding": "same", "data_format": "channels_last", "dilation_rate": [1, 1], "groups": 1, "activation": "linear", "use_bias": false, "kernel_initializer": {"class_name": "HeNormal", "config": {"seed": null}}, "bias_initializer": {"class_name": "Zeros", "config": {}, "shared_object_id": 464}, "kernel_regularizer": null, "bias_regularizer": null, "activity_regularizer": null, "kernel_constraint": null, "bias_constraint": null, "depth_multiplier": 1, "depthwise_initializer": {"class_name": "GlorotUniform", "config": {"seed": null}}, "pointwise_initializer": {"class_name": "GlorotUniform", "config": {"seed": null}}, "depthwise_regularizer": null, "pointwise_regularizer": null, "depthwise_constraint": null, "pointwise_constraint": null}, "name": "separable_conv_1_normal_left1_1", "inbound_nodes": [[["activation_35", 0, 0, {}]]]}, {"class_name": "SeparableConv2D", "config": {"name": "separable_conv_1_normal_right1_1", "trainable": true, "dtype": "float32", "filters": 44, "kernel_size": [3, 3], "strides": [1, 1], "padding": "same", "data_format": "channels_last", "dilation_rate": [1, 1], "groups": 1, "activation": "linear", "use_bias": false, "kernel_initializer": {"class_name": "HeNormal", "config": {"seed": null}}, "bias_initializer": {"class_name": "Zeros", "config": {}, "shared_object_id": 469}, "kernel_regularizer": null, "bias_regularizer": null, "activity_regularizer": null, "kernel_constraint": null, "bias_constraint": null, "depth_multiplier": 1, "depthwise_initializer": {"class_name": "GlorotUniform", "config": {"seed": null}}, "pointwise_initializer": {"class_name": "GlorotUniform", "config": {"seed": null}}, "depthwise_regularizer": null, "pointwise_regularizer": null, "depthwise_constraint": null, "pointwise_constraint": null}, "name": "separable_conv_1_normal_right1_1", "inbound_nodes": [[["activation_37", 0, 0, {}]]]}, {"class_name": "SeparableConv2D", "config": {"name": "separable_conv_1_normal_left2_1", "trainable": true, "dtype": "float32", "filters": 44, "kernel_size": [5, 5], "strides": [1, 1], "padding": "same", "data_format": "channels_last", "dilation_rate": [1, 1], "groups": 1, "activation": "linear", "use_bias": false, "kernel_initializer": {"class_name": "HeNormal", "config": {"seed": null}}, "bias_initializer": {"class_name": "Zeros", "config": {}, "shared_object_id": 474}, "kernel_regularizer": null, "bias_regularizer": null, "activity_regularizer": null, "kernel_constraint": null, "bias_constraint": null, "depth_multiplier": 1, "depthwise_initializer": {"class_name": "GlorotUniform", "config": {"seed": null}}, "pointwise_initializer": {"class_name": "GlorotUniform", "config": {"seed": null}}, "depthwise_regularizer": null, "pointwise_regularizer": null, "depthwise_constraint": null, "pointwise_constraint": null}, "name": "separable_conv_1_normal_left2_1", "inbound_nodes": [[["activation_39", 0, 0, {}]]]}, {"class_name": "SeparableConv2D", "config": {"name": "separable_conv_1_normal_right2_1", "trainable": true, "dtype": "float32", "filters": 44, "kernel_size": [3, 3], "strides": [1, 1], "padding": "same", "data_format": "channels_last", "dilation_rate": [1, 1], "groups": 1, "activation": "linear", "use_bias": false, "kernel_initializer": {"class_name": "HeNormal", "config": {"seed": null}}, "bias_initializer": {"class_name": "Zeros", "config": {}, "shared_object_id": 479}, "kernel_regularizer": null, "bias_regularizer": null, "activity_regularizer": null, "kernel_constraint": null, "bias_constraint": null, "depth_multiplier": 1, "depthwise_initializer": {"class_name": "GlorotUniform", "config": {"seed": null}}, "pointwise_initializer": {"class_name": "GlorotUniform", "config": {"seed": null}}, "depthwise_regularizer": null, "pointwise_regularizer": null, "depthwise_constraint": null, "pointwise_constraint": null}, "name": "separable_conv_1_normal_right2_1", "inbound_nodes": [[["activation_41", 0, 0, {}]]]}, {"class_name": "SeparableConv2D", "config": {"name": "separable_conv_1_normal_left5_1", "trainable": true, "dtype": "float32", "filters": 44, "kernel_size": [3, 3], "strides": [1, 1], "padding": "same", "data_format": "channels_last", "dilation_rate": [1, 1], "groups": 1, "activation": "linear", "use_bias": false, "kernel_initializer": {"class_name": "HeNormal", "config": {"seed": null}}, "bias_initializer": {"class_name": "Zeros", "config": {}, "shared_object_id": 484}, "kernel_regularizer": null, "bias_regularizer": null, "activity_regularizer": null, "kernel_constraint": null, "bias_constraint": null, "depth_multiplier": 1, "depthwise_initializer": {"class_name": "GlorotUniform", "config": {"seed": null}}, "pointwise_initializer": {"class_name": "GlorotUniform", "config": {"seed": null}}, "depthwise_regularizer": null, "pointwise_regularizer": null, "depthwise_constraint": null, "pointwise_constraint": null}, "name": "separable_conv_1_normal_left5_1", "inbound_nodes": [[["activation_43", 0, 0, {}]]]}, {"class_name": "BatchNormalization", "config": {"name": "separable_conv_1_bn_normal_left1_1", "trainable": true, "dtype": "float32", "axis": [3], "momentum": 0.9997, "epsilon": 0.001, "center": true, "scale": true, "beta_initializer": {"class_name": "Zeros", "config": {}}, "gamma_initializer": {"class_name": "Ones", "config": {}}, "moving_mean_initializer": {"class_name": "Zeros", "config": {}}, "moving_variance_initializer": {"class_name": "Ones", "config": {}}, "beta_regularizer": null, "gamma_regularizer": null, "beta_constraint": null, "gamma_constraint": null}, "name": "separable_conv_1_bn_normal_left1_1", "inbound_nodes": [[["separable_conv_1_normal_left1_1", 0, 0, {}]]]}, {"class_name": "BatchNormalization", "config": {"name": "separable_conv_1_bn_normal_right1_1", "trainable": true, "dtype": "float32", "axis": [3], "momentum": 0.9997, "epsilon": 0.001, "center": true, "scale": true, "beta_initializer": {"class_name": "Zeros", "config": {}}, "gamma_initializer": {"class_name": "Ones", "config": {}}, "moving_mean_initializer": {"class_name": "Zeros", "config": {}}, "moving_variance_initializer": {"class_name": "Ones", "config": {}}, "beta_regularizer": null, "gamma_regularizer": null, "beta_constraint": null, "gamma_constraint": null}, "name": "separable_conv_1_bn_normal_right1_1", "inbound_nodes": [[["separable_conv_1_normal_right1_1", 0, 0, {}]]]}, {"class_name": "BatchNormalization", "config": {"name": "separable_conv_1_bn_normal_left2_1", "trainable": true, "dtype": "float32", "axis": [3], "momentum": 0.9997, "epsilon": 0.001, "center": true, "scale": true, "beta_initializer": {"class_name": "Zeros", "config": {}}, "gamma_initializer": {"class_name": "Ones", "config": {}}, "moving_mean_initializer": {"class_name": "Zeros", "config": {}}, "moving_variance_initializer": {"class_name": "Ones", "config": {}}, "beta_regularizer": null, "gamma_regularizer": null, "beta_constraint": null, "gamma_constraint": null}, "name": "separable_conv_1_bn_normal_left2_1", "inbound_nodes": [[["separable_conv_1_normal_left2_1", 0, 0, {}]]]}, {"class_name": "BatchNormalization", "config": {"name": "separable_conv_1_bn_normal_right2_1", "trainable": true, "dtype": "float32", "axis": [3], "momentum": 0.9997, "epsilon": 0.001, "center": true, "scale": true, "beta_initializer": {"class_name": "Zeros", "config": {}}, "gamma_initializer": {"class_name": "Ones", "config": {}}, "moving_mean_initializer": {"class_name": "Zeros", "config": {}}, "moving_variance_initializer": {"class_name": "Ones", "config": {}}, "beta_regularizer": null, "gamma_regularizer": null, "beta_constraint": null, "gamma_constraint": null}, "name": "separable_conv_1_bn_normal_right2_1", "inbound_nodes": [[["separable_conv_1_normal_right2_1", 0, 0, {}]]]}, {"class_name": "BatchNormalization", "config": {"name": "separable_conv_1_bn_normal_left5_1", "trainable": true, "dtype": "float32", "axis": [3], "momentum": 0.9997, "epsilon": 0.001, "center": true, "scale": true, "beta_initializer": {"class_name": "Zeros", "config": {}}, "gamma_initializer": {"class_name": "Ones", "config": {}}, "moving_mean_initializer": {"class_name": "Zeros", "config": {}}, "moving_variance_initializer": {"class_name": "Ones", "config": {}}, "beta_regularizer": null, "gamma_regularizer": null, "beta_constraint": null, "gamma_constraint": null}, "name": "separable_conv_1_bn_normal_left5_1", "inbound_nodes": [[["separable_conv_1_normal_left5_1", 0, 0, {}]]]}, {"class_name": "Activation", "config": {"name": "activation_36", "trainable": true, "dtype": "float32", "activation": "relu"}, "name": "activation_36", "inbound_nodes": [[["separable_conv_1_bn_normal_left1_1", 0, 0, {}]]]}, {"class_name": "Activation", "config": {"name": "activation_38", "trainable": true, "dtype": "float32", "activation": "relu"}, "name": "activation_38", "inbound_nodes": [[["separable_conv_1_bn_normal_right1_1", 0, 0, {}]]]}, {"class_name": "Activation", "config": {"name": "activation_40", "trainable": true, "dtype": "float32", "activation": "relu"}, "name": "activation_40", "inbound_nodes": [[["separable_conv_1_bn_normal_left2_1", 0, 0, {}]]]}, {"class_name": "Activation", "config": {"name": "activation_42", "trainable": true, "dtype": "float32", "activation": "relu"}, "name": "activation_42", "inbound_nodes": [[["separable_conv_1_bn_normal_right2_1", 0, 0, {}]]]}, {"class_name": "Activation", "config": {"name": "activation_44", "trainable": true, "dtype": "float32", "activation": "relu"}, "name": "activation_44", "inbound_nodes": [[["separable_conv_1_bn_normal_left5_1", 0, 0, {}]]]}, {"class_name": "SeparableConv2D", "config": {"name": "separable_conv_2_normal_left1_1", "trainable": true, "dtype": "float32", "filters": 44, "kernel_size": [5, 5], "strides": [1, 1], "padding": "same", "data_format": "channels_last", "dilation_rate": [1, 1], "groups": 1, "activation": "linear", "use_bias": false, "kernel_initializer": {"class_name": "HeNormal", "config": {"seed": null}}, "bias_initializer": {"class_name": "Zeros", "config": {}, "shared_object_id": 519}, "kernel_regularizer": null, "bias_regularizer": null, "activity_regularizer": null, "kernel_constraint": null, "bias_constraint": null, "depth_multiplier": 1, "depthwise_initializer": {"class_name": "GlorotUniform", "config": {"seed": null}}, "pointwise_initializer": {"class_name": "GlorotUniform", "config": {"seed": null}}, "depthwise_regularizer": null, "pointwise_regularizer": null, "depthwise_constraint": null, "pointwise_constraint": null}, "name": "separable_conv_2_normal_left1_1", "inbound_nodes": [[["activation_36", 0, 0, {}]]]}, {"class_name": "SeparableConv2D", "config": {"name": "separable_conv_2_normal_right1_1", "trainable": true, "dtype": "float32", "filters": 44, "kernel_size": [3, 3], "strides": [1, 1], "padding": "same", "data_format": "channels_last", "dilation_rate": [1, 1], "groups": 1, "activation": "linear", "use_bias": false, "kernel_initializer": {"class_name": "HeNormal", "config": {"seed": null}}, "bias_initializer": {"class_name": "Zeros", "config": {}, "shared_object_id": 524}, "kernel_regularizer": null, "bias_regularizer": null, "activity_regularizer": null, "kernel_constraint": null, "bias_constraint": null, "depth_multiplier": 1, "depthwise_initializer": {"class_name": "GlorotUniform", "config": {"seed": null}}, "pointwise_initializer": {"class_name": "GlorotUniform", "config": {"seed": null}}, "depthwise_regularizer": null, "pointwise_regularizer": null, "depthwise_constraint": null, "pointwise_constraint": null}, "name": "separable_conv_2_normal_right1_1", "inbound_nodes": [[["activation_38", 0, 0, {}]]]}, {"class_name": "SeparableConv2D", "config": {"name": "separable_conv_2_normal_left2_1", "trainable": true, "dtype": "float32", "filters": 44, "kernel_size": [5, 5], "strides": [1, 1], "padding": "same", "data_format": "channels_last", "dilation_rate": [1, 1], "groups": 1, "activation": "linear", "use_bias": false, "kernel_initializer": {"class_name": "HeNormal", "config": {"seed": null}}, "bias_initializer": {"class_name": "Zeros", "config": {}, "shared_object_id": 529}, "kernel_regularizer": null, "bias_regularizer": null, "activity_regularizer": null, "kernel_constraint": null, "bias_constraint": null, "depth_multiplier": 1, "depthwise_initializer": {"class_name": "GlorotUniform", "config": {"seed": null}}, "pointwise_initializer": {"class_name": "GlorotUniform", "config": {"seed": null}}, "depthwise_regularizer": null, "pointwise_regularizer": null, "depthwise_constraint": null, "pointwise_constraint": null}, "name": "separable_conv_2_normal_left2_1", "inbound_nodes": [[["activation_40", 0, 0, {}]]]}, {"class_name": "SeparableConv2D", "config": {"name": "separable_conv_2_normal_right2_1", "trainable": true, "dtype": "float32", "filters": 44, "kernel_size": [3, 3], "strides": [1, 1], "padding": "same", "data_format": "channels_last", "dilation_rate": [1, 1], "groups": 1, "activation": "linear", "use_bias": false, "kernel_initializer": {"class_name": "HeNormal", "config": {"seed": null}}, "bias_initializer": {"class_name": "Zeros", "config": {}, "shared_object_id": 534}, "kernel_regularizer": null, "bias_regularizer": null, "activity_regularizer": null, "kernel_constraint": null, "bias_constraint": null, "depth_multiplier": 1, "depthwise_initializer": {"class_name": "GlorotUniform", "config": {"seed": null}}, "pointwise_initializer": {"class_name": "GlorotUniform", "config": {"seed": null}}, "depthwise_regularizer": null, "pointwise_regularizer": null, "depthwise_constraint": null, "pointwise_constraint": null}, "name": "separable_conv_2_normal_right2_1", "inbound_nodes": [[["activation_42", 0, 0, {}]]]}, {"class_name": "SeparableConv2D", "config": {"name": "separable_conv_2_normal_left5_1", "trainable": true, "dtype": "float32", "filters": 44, "kernel_size": [3, 3], "strides": [1, 1], "padding": "same", "data_format": "channels_last", "dilation_rate": [1, 1], "groups": 1, "activation": "linear", "use_bias": false, "kernel_initializer": {"class_name": "HeNormal", "config": {"seed": null}}, "bias_initializer": {"class_name": "Zeros", "config": {}, "shared_object_id": 539}, "kernel_regularizer": null, "bias_regularizer": null, "activity_regularizer": null, "kernel_constraint": null, "bias_constraint": null, "depth_multiplier": 1, "depthwise_initializer": {"class_name": "GlorotUniform", "config": {"seed": null}}, "pointwise_initializer": {"class_name": "GlorotUniform", "config": {"seed": null}}, "depthwise_regularizer": null, "pointwise_regularizer": null, "depthwise_constraint": null, "pointwise_constraint": null}, "name": "separable_conv_2_normal_left5_1", "inbound_nodes": [[["activation_44", 0, 0, {}]]]}, {"class_name": "BatchNormalization", "config": {"name": "separable_conv_2_bn_normal_left1_1", "trainable": true, "dtype": "float32", "axis": [3], "momentum": 0.9997, "epsilon": 0.001, "center": true, "scale": true, "beta_initializer": {"class_name": "Zeros", "config": {}}, "gamma_initializer": {"class_name": "Ones", "config": {}}, "moving_mean_initializer": {"class_name": "Zeros", "config": {}}, "moving_variance_initializer": {"class_name": "Ones", "config": {}}, "beta_regularizer": null, "gamma_regularizer": null, "beta_constraint": null, "gamma_constraint": null}, "name": "separable_conv_2_bn_normal_left1_1", "inbound_nodes": [[["separable_conv_2_normal_left1_1", 0, 0, {}]]]}, {"class_name": "BatchNormalization", "config": {"name": "separable_conv_2_bn_normal_right1_1", "trainable": true, "dtype": "float32", "axis": [3], "momentum": 0.9997, "epsilon": 0.001, "center": true, "scale": true, "beta_initializer": {"class_name": "Zeros", "config": {}}, "gamma_initializer": {"class_name": "Ones", "config": {}}, "moving_mean_initializer": {"class_name": "Zeros", "config": {}}, "moving_variance_initializer": {"class_name": "Ones", "config": {}}, "beta_regularizer": null, "gamma_regularizer": null, "beta_constraint": null, "gamma_constraint": null}, "name": "separable_conv_2_bn_normal_right1_1", "inbound_nodes": [[["separable_conv_2_normal_right1_1", 0, 0, {}]]]}, {"class_name": "BatchNormalization", "config": {"name": "separable_conv_2_bn_normal_left2_1", "trainable": true, "dtype": "float32", "axis": [3], "momentum": 0.9997, "epsilon": 0.001, "center": true, "scale": true, "beta_initializer": {"class_name": "Zeros", "config": {}}, "gamma_initializer": {"class_name": "Ones", "config": {}}, "moving_mean_initializer": {"class_name": "Zeros", "config": {}}, "moving_variance_initializer": {"class_name": "Ones", "config": {}}, "beta_regularizer": null, "gamma_regularizer": null, "beta_constraint": null, "gamma_constraint": null}, "name": "separable_conv_2_bn_normal_left2_1", "inbound_nodes": [[["separable_conv_2_normal_left2_1", 0, 0, {}]]]}, {"class_name": "BatchNormalization", "config": {"name": "separable_conv_2_bn_normal_right2_1", "trainable": true, "dtype": "float32", "axis": [3], "momentum": 0.9997, "epsilon": 0.001, "center": true, "scale": true, "beta_initializer": {"class_name": "Zeros", "config": {}}, "gamma_initializer": {"class_name": "Ones", "config": {}}, "moving_mean_initializer": {"class_name": "Zeros", "config": {}}, "moving_variance_initializer": {"class_name": "Ones", "config": {}}, "beta_regularizer": null, "gamma_regularizer": null, "beta_constraint": null, "gamma_constraint": null}, "name": "separable_conv_2_bn_normal_right2_1", "inbound_nodes": [[["separable_conv_2_normal_right2_1", 0, 0, {}]]]}, {"class_name": "AveragePooling2D", "config": {"name": "normal_left3_1", "trainable": true, "dtype": "float32", "pool_size": [3, 3], "padding": "same", "strides": [1, 1], "data_format": "channels_last"}, "name": "normal_left3_1", "inbound_nodes": [[["normal_bn_1_1", 0, 0, {}]]]}, {"class_name": "AveragePooling2D", "config": {"name": "normal_left4_1", "trainable": true, "dtype": "float32", "pool_size": [3, 3], "padding": "same", "strides": [1, 1], "data_format": "channels_last"}, "name": "normal_left4_1", "inbound_nodes": [[["adjust_bn_1", 0, 0, {}]]]}, {"class_name": "AveragePooling2D", "config": {"name": "normal_right4_1", "trainable": true, "dtype": "float32", "pool_size": [3, 3], "padding": "same", "strides": [1, 1], "data_format": "channels_last"}, "name": "normal_right4_1", "inbound_nodes": [[["adjust_bn_1", 0, 0, {}]]]}, {"class_name": "BatchNormalization", "config": {"name": "separable_conv_2_bn_normal_left5_1", "trainable": true, "dtype": "float32", "axis": [3], "momentum": 0.9997, "epsilon": 0.001, "center": true, "scale": true, "beta_initializer": {"class_name": "Zeros", "config": {}}, "gamma_initializer": {"class_name": "Ones", "config": {}}, "moving_mean_initializer": {"class_name": "Zeros", "config": {}}, "moving_variance_initializer": {"class_name": "Ones", "config": {}}, "beta_regularizer": null, "gamma_regularizer": null, "beta_constraint": null, "gamma_constraint": null}, "name": "separable_conv_2_bn_normal_left5_1", "inbound_nodes": [[["separable_conv_2_normal_left5_1", 0, 0, {}]]]}, {"class_name": "Add", "config": {"name": "normal_add_1_1", "trainable": true, "dtype": "float32"}, "name": "normal_add_1_1", "inbound_nodes": [[["separable_conv_2_bn_normal_left1_1", 0, 0, {}], ["separable_conv_2_bn_normal_right1_1", 0, 0, {}]]]}, {"class_name": "Add", "config": {"name": "normal_add_2_1", "trainable": true, "dtype": "float32"}, "name": "normal_add_2_1", "inbound_nodes": [[["separable_conv_2_bn_normal_left2_1", 0, 0, {}], ["separable_conv_2_bn_normal_right2_1", 0, 0, {}]]]}, {"class_name": "Add", "config": {"name": "normal_add_3_1", "trainable": true, "dtype": "float32"}, "name": "normal_add_3_1", "inbound_nodes": [[["normal_left3_1", 0, 0, {}], ["adjust_bn_1", 0, 0, {}]]]}, {"class_name": "Add", "config": {"name": "normal_add_4_1", "trainable": true, "dtype": "float32"}, "name": "normal_add_4_1", "inbound_nodes": [[["normal_left4_1", 0, 0, {}], ["normal_right4_1", 0, 0, {}]]]}, {"class_name": "Add", "config": {"name": "normal_add_5_1", "trainable": true, "dtype": "float32"}, "name": "normal_add_5_1", "inbound_nodes": [[["separable_conv_2_bn_normal_left5_1", 0, 0, {}], ["normal_bn_1_1", 0, 0, {}]]]}, {"class_name": "Concatenate", "config": {"name": "normal_concat_1", "trainable": true, "dtype": "float32", "axis": -1}, "name": "normal_concat_1", "inbound_nodes": [[["adjust_bn_1", 0, 0, {}], ["normal_add_1_1", 0, 0, {}], ["normal_add_2_1", 0, 0, {}], ["normal_add_3_1", 0, 0, {}], ["normal_add_4_1", 0, 0, {}], ["normal_add_5_1", 0, 0, {}]]]}, {"class_name": "Activation", "config": {"name": "activation_45", "trainable": true, "dtype": "float32", "activation": "relu"}, "name": "activation_45", "inbound_nodes": [[["normal_concat_0", 0, 0, {}]]]}, {"class_name": "Activation", "config": {"name": "activation_46", "trainable": true, "dtype": "float32", "activation": "relu"}, "name": "activation_46", "inbound_nodes": [[["normal_concat_1", 0, 0, {}]]]}, {"class_name": "Conv2D", "config": {"name": "adjust_conv_projection_2", "trainable": true, "dtype": "float32", "filters": 44, "kernel_size": [1, 1], "strides": [1, 1], "padding": "same", "data_format": "channels_last", "dilation_rate": [1, 1], "groups": 1, "activation": "linear", "use_bias": false, "kernel_initializer": {"class_name": "HeNormal", "config": {"seed": null}}, "bias_initializer": {"class_name": "Zeros", "config": {}}, "kernel_regularizer": null, "bias_regularizer": null, "activity_regularizer": null, "kernel_constraint": null, "bias_constraint": null}, "name": "adjust_conv_projection_2", "inbound_nodes": [[["activation_45", 0, 0, {}]]]}, {"class_name": "Conv2D", "config": {"name": "normal_conv_1_2", "trainable": true, "dtype": "float32", "filters": 44, "kernel_size": [1, 1], "strides": [1, 1], "padding": "same", "data_format": "channels_last", "dilation_rate": [1, 1], "groups": 1, "activation": "linear", "use_bias": false, "kernel_initializer": {"class_name": "HeNormal", "config": {"seed": null}}, "bias_initializer": {"class_name": "Zeros", "config": {}}, "kernel_regularizer": null, "bias_regularizer": null, "activity_regularizer": null, "kernel_constraint": null, "bias_constraint": null}, "name": "normal_conv_1_2", "inbound_nodes": [[["activation_46", 0, 0, {}]]]}, {"class_name": "BatchNormalization", "config": {"name": "adjust_bn_2", "trainable": true, "dtype": "float32", "axis": [3], "momentum": 0.9997, "epsilon": 0.001, "center": true, "scale": true, "beta_initializer": {"class_name": "Zeros", "config": {}}, "gamma_initializer": {"class_name": "Ones", "config": {}}, "moving_mean_initializer": {"class_name": "Zeros", "config": {}}, "moving_variance_initializer": {"class_name": "Ones", "config": {}}, "beta_regularizer": null, "gamma_regularizer": null, "beta_constraint": null, "gamma_constraint": null}, "name": "adjust_bn_2", "inbound_nodes": [[["adjust_conv_projection_2", 0, 0, {}]]]}, {"class_name": "BatchNormalization", "config": {"name": "normal_bn_1_2", "trainable": true, "dtype": "float32", "axis": [3], "momentum": 0.9997, "epsilon": 0.001, "center": true, "scale": true, "beta_initializer": {"class_name": "Zeros", "config": {}}, "gamma_initializer": {"class_name": "Ones", "config": {}}, "moving_mean_initializer": {"class_name": "Zeros", "config": {}}, "moving_variance_initializer": {"class_name": "Ones", "config": {}}, "beta_regularizer": null, "gamma_regularizer": null, "beta_constraint": null, "gamma_constraint": null}, "name": "normal_bn_1_2", "inbound_nodes": [[["normal_conv_1_2", 0, 0, {}]]]}, {"class_name": "Activation", "config": {"name": "activation_47", "trainable": true, "dtype": "float32", "activation": "relu"}, "name": "activation_47", "inbound_nodes": [[["normal_bn_1_2", 0, 0, {}]]]}, {"class_name": "Activation", "config": {"name": "activation_49", "trainable": true, "dtype": "float32", "activation": "relu"}, "name": "activation_49", "inbound_nodes": [[["adjust_bn_2", 0, 0, {}]]]}, {"class_name": "Activation", "config": {"name": "activation_51", "trainable": true, "dtype": "float32", "activation": "relu"}, "name": "activation_51", "inbound_nodes": [[["adjust_bn_2", 0, 0, {}]]]}, {"class_name": "Activation", "config": {"name": "activation_53", "trainable": true, "dtype": "float32", "activation": "relu"}, "name": "activation_53", "inbound_nodes": [[["adjust_bn_2", 0, 0, {}]]]}, {"class_name": "Activation", "config": {"name": "activation_55", "trainable": true, "dtype": "float32", "activation": "relu"}, "name": "activation_55", "inbound_nodes": [[["normal_bn_1_2", 0, 0, {}]]]}, {"class_name": "SeparableConv2D", "config": {"name": "separable_conv_1_normal_left1_2", "trainable": true, "dtype": "float32", "filters": 44, "kernel_size": [5, 5], "strides": [1, 1], "padding": "same", "data_format": "channels_last", "dilation_rate": [1, 1], "groups": 1, "activation": "linear", "use_bias": false, "kernel_initializer": {"class_name": "HeNormal", "config": {"seed": null}}, "bias_initializer": {"class_name": "Zeros", "config": {}, "shared_object_id": 601}, "kernel_regularizer": null, "bias_regularizer": null, "activity_regularizer": null, "kernel_constraint": null, "bias_constraint": null, "depth_multiplier": 1, "depthwise_initializer": {"class_name": "GlorotUniform", "config": {"seed": null}}, "pointwise_initializer": {"class_name": "GlorotUniform", "config": {"seed": null}}, "depthwise_regularizer": null, "pointwise_regularizer": null, "depthwise_constraint": null, "pointwise_constraint": null}, "name": "separable_conv_1_normal_left1_2", "inbound_nodes": [[["activation_47", 0, 0, {}]]]}, {"class_name": "SeparableConv2D", "config": {"name": "separable_conv_1_normal_right1_2", "trainable": true, "dtype": "float32", "filters": 44, "kernel_size": [3, 3], "strides": [1, 1], "padding": "same", "data_format": "channels_last", "dilation_rate": [1, 1], "groups": 1, "activation": "linear", "use_bias": false, "kernel_initializer": {"class_name": "HeNormal", "config": {"seed": null}}, "bias_initializer": {"class_name": "Zeros", "config": {}, "shared_object_id": 606}, "kernel_regularizer": null, "bias_regularizer": null, "activity_regularizer": null, "kernel_constraint": null, "bias_constraint": null, "depth_multiplier": 1, "depthwise_initializer": {"class_name": "GlorotUniform", "config": {"seed": null}}, "pointwise_initializer": {"class_name": "GlorotUniform", "config": {"seed": null}}, "depthwise_regularizer": null, "pointwise_regularizer": null, "depthwise_constraint": null, "pointwise_constraint": null}, "name": "separable_conv_1_normal_right1_2", "inbound_nodes": [[["activation_49", 0, 0, {}]]]}, {"class_name": "SeparableConv2D", "config": {"name": "separable_conv_1_normal_left2_2", "trainable": true, "dtype": "float32", "filters": 44, "kernel_size": [5, 5], "strides": [1, 1], "padding": "same", "data_format": "channels_last", "dilation_rate": [1, 1], "groups": 1, "activation": "linear", "use_bias": false, "kernel_initializer": {"class_name": "HeNormal", "config": {"seed": null}}, "bias_initializer": {"class_name": "Zeros", "config": {}, "shared_object_id": 611}, "kernel_regularizer": null, "bias_regularizer": null, "activity_regularizer": null, "kernel_constraint": null, "bias_constraint": null, "depth_multiplier": 1, "depthwise_initializer": {"class_name": "GlorotUniform", "config": {"seed": null}}, "pointwise_initializer": {"class_name": "GlorotUniform", "config": {"seed": null}}, "depthwise_regularizer": null, "pointwise_regularizer": null, "depthwise_constraint": null, "pointwise_constraint": null}, "name": "separable_conv_1_normal_left2_2", "inbound_nodes": [[["activation_51", 0, 0, {}]]]}, {"class_name": "SeparableConv2D", "config": {"name": "separable_conv_1_normal_right2_2", "trainable": true, "dtype": "float32", "filters": 44, "kernel_size": [3, 3], "strides": [1, 1], "padding": "same", "data_format": "channels_last", "dilation_rate": [1, 1], "groups": 1, "activation": "linear", "use_bias": false, "kernel_initializer": {"class_name": "HeNormal", "config": {"seed": null}}, "bias_initializer": {"class_name": "Zeros", "config": {}, "shared_object_id": 616}, "kernel_regularizer": null, "bias_regularizer": null, "activity_regularizer": null, "kernel_constraint": null, "bias_constraint": null, "depth_multiplier": 1, "depthwise_initializer": {"class_name": "GlorotUniform", "config": {"seed": null}}, "pointwise_initializer": {"class_name": "GlorotUniform", "config": {"seed": null}}, "depthwise_regularizer": null, "pointwise_regularizer": null, "depthwise_constraint": null, "pointwise_constraint": null}, "name": "separable_conv_1_normal_right2_2", "inbound_nodes": [[["activation_53", 0, 0, {}]]]}, {"class_name": "SeparableConv2D", "config": {"name": "separable_conv_1_normal_left5_2", "trainable": true, "dtype": "float32", "filters": 44, "kernel_size": [3, 3], "strides": [1, 1], "padding": "same", "data_format": "channels_last", "dilation_rate": [1, 1], "groups": 1, "activation": "linear", "use_bias": false, "kernel_initializer": {"class_name": "HeNormal", "config": {"seed": null}}, "bias_initializer": {"class_name": "Zeros", "config": {}, "shared_object_id": 621}, "kernel_regularizer": null, "bias_regularizer": null, "activity_regularizer": null, "kernel_constraint": null, "bias_constraint": null, "depth_multiplier": 1, "depthwise_initializer": {"class_name": "GlorotUniform", "config": {"seed": null}}, "pointwise_initializer": {"class_name": "GlorotUniform", "config": {"seed": null}}, "depthwise_regularizer": null, "pointwise_regularizer": null, "depthwise_constraint": null, "pointwise_constraint": null}, "name": "separable_conv_1_normal_left5_2", "inbound_nodes": [[["activation_55", 0, 0, {}]]]}, {"class_name": "BatchNormalization", "config": {"name": "separable_conv_1_bn_normal_left1_2", "trainable": true, "dtype": "float32", "axis": [3], "momentum": 0.9997, "epsilon": 0.001, "center": true, "scale": true, "beta_initializer": {"class_name": "Zeros", "config": {}}, "gamma_initializer": {"class_name": "Ones", "config": {}}, "moving_mean_initializer": {"class_name": "Zeros", "config": {}}, "moving_variance_initializer": {"class_name": "Ones", "config": {}}, "beta_regularizer": null, "gamma_regularizer": null, "beta_constraint": null, "gamma_constraint": null}, "name": "separable_conv_1_bn_normal_left1_2", "inbound_nodes": [[["separable_conv_1_normal_left1_2", 0, 0, {}]]]}, {"class_name": "BatchNormalization", "config": {"name": "separable_conv_1_bn_normal_right1_2", "trainable": true, "dtype": "float32", "axis": [3], "momentum": 0.9997, "epsilon": 0.001, "center": true, "scale": true, "beta_initializer": {"class_name": "Zeros", "config": {}}, "gamma_initializer": {"class_name": "Ones", "config": {}}, "moving_mean_initializer": {"class_name": "Zeros", "config": {}}, "moving_variance_initializer": {"class_name": "Ones", "config": {}}, "beta_regularizer": null, "gamma_regularizer": null, "beta_constraint": null, "gamma_constraint": null}, "name": "separable_conv_1_bn_normal_right1_2", "inbound_nodes": [[["separable_conv_1_normal_right1_2", 0, 0, {}]]]}, {"class_name": "BatchNormalization", "config": {"name": "separable_conv_1_bn_normal_left2_2", "trainable": true, "dtype": "float32", "axis": [3], "momentum": 0.9997, "epsilon": 0.001, "center": true, "scale": true, "beta_initializer": {"class_name": "Zeros", "config": {}}, "gamma_initializer": {"class_name": "Ones", "config": {}}, "moving_mean_initializer": {"class_name": "Zeros", "config": {}}, "moving_variance_initializer": {"class_name": "Ones", "config": {}}, "beta_regularizer": null, "gamma_regularizer": null, "beta_constraint": null, "gamma_constraint": null}, "name": "separable_conv_1_bn_normal_left2_2", "inbound_nodes": [[["separable_conv_1_normal_left2_2", 0, 0, {}]]]}, {"class_name": "BatchNormalization", "config": {"name": "separable_conv_1_bn_normal_right2_2", "trainable": true, "dtype": "float32", "axis": [3], "momentum": 0.9997, "epsilon": 0.001, "center": true, "scale": true, "beta_initializer": {"class_name": "Zeros", "config": {}}, "gamma_initializer": {"class_name": "Ones", "config": {}}, "moving_mean_initializer": {"class_name": "Zeros", "config": {}}, "moving_variance_initializer": {"class_name": "Ones", "config": {}}, "beta_regularizer": null, "gamma_regularizer": null, "beta_constraint": null, "gamma_constraint": null}, "name": "separable_conv_1_bn_normal_right2_2", "inbound_nodes": [[["separable_conv_1_normal_right2_2", 0, 0, {}]]]}, {"class_name": "BatchNormalization", "config": {"name": "separable_conv_1_bn_normal_left5_2", "trainable": true, "dtype": "float32", "axis": [3], "momentum": 0.9997, "epsilon": 0.001, "center": true, "scale": true, "beta_initializer": {"class_name": "Zeros", "config": {}}, "gamma_initializer": {"class_name": "Ones", "config": {}}, "moving_mean_initializer": {"class_name": "Zeros", "config": {}}, "moving_variance_initializer": {"class_name": "Ones", "config": {}}, "beta_regularizer": null, "gamma_regularizer": null, "beta_constraint": null, "gamma_constraint": null}, "name": "separable_conv_1_bn_normal_left5_2", "inbound_nodes": [[["separable_conv_1_normal_left5_2", 0, 0, {}]]]}, {"class_name": "Activation", "config": {"name": "activation_48", "trainable": true, "dtype": "float32", "activation": "relu"}, "name": "activation_48", "inbound_nodes": [[["separable_conv_1_bn_normal_left1_2", 0, 0, {}]]]}, {"class_name": "Activation", "config": {"name": "activation_50", "trainable": true, "dtype": "float32", "activation": "relu"}, "name": "activation_50", "inbound_nodes": [[["separable_conv_1_bn_normal_right1_2", 0, 0, {}]]]}, {"class_name": "Activation", "config": {"name": "activation_52", "trainable": true, "dtype": "float32", "activation": "relu"}, "name": "activation_52", "inbound_nodes": [[["separable_conv_1_bn_normal_left2_2", 0, 0, {}]]]}, {"class_name": "Activation", "config": {"name": "activation_54", "trainable": true, "dtype": "float32", "activation": "relu"}, "name": "activation_54", "inbound_nodes": [[["separable_conv_1_bn_normal_right2_2", 0, 0, {}]]]}, {"class_name": "Activation", "config": {"name": "activation_56", "trainable": true, "dtype": "float32", "activation": "relu"}, "name": "activation_56", "inbound_nodes": [[["separable_conv_1_bn_normal_left5_2", 0, 0, {}]]]}, {"class_name": "SeparableConv2D", "config": {"name": "separable_conv_2_normal_left1_2", "trainable": true, "dtype": "float32", "filters": 44, "kernel_size": [5, 5], "strides": [1, 1], "padding": "same", "data_format": "channels_last", "dilation_rate": [1, 1], "groups": 1, "activation": "linear", "use_bias": false, "kernel_initializer": {"class_name": "HeNormal", "config": {"seed": null}}, "bias_initializer": {"class_name": "Zeros", "config": {}, "shared_object_id": 656}, "kernel_regularizer": null, "bias_regularizer": null, "activity_regularizer": null, "kernel_constraint": null, "bias_constraint": null, "depth_multiplier": 1, "depthwise_initializer": {"class_name": "GlorotUniform", "config": {"seed": null}}, "pointwise_initializer": {"class_name": "GlorotUniform", "config": {"seed": null}}, "depthwise_regularizer": null, "pointwise_regularizer": null, "depthwise_constraint": null, "pointwise_constraint": null}, "name": "separable_conv_2_normal_left1_2", "inbound_nodes": [[["activation_48", 0, 0, {}]]]}, {"class_name": "SeparableConv2D", "config": {"name": "separable_conv_2_normal_right1_2", "trainable": true, "dtype": "float32", "filters": 44, "kernel_size": [3, 3], "strides": [1, 1], "padding": "same", "data_format": "channels_last", "dilation_rate": [1, 1], "groups": 1, "activation": "linear", "use_bias": false, "kernel_initializer": {"class_name": "HeNormal", "config": {"seed": null}}, "bias_initializer": {"class_name": "Zeros", "config": {}, "shared_object_id": 661}, "kernel_regularizer": null, "bias_regularizer": null, "activity_regularizer": null, "kernel_constraint": null, "bias_constraint": null, "depth_multiplier": 1, "depthwise_initializer": {"class_name": "GlorotUniform", "config": {"seed": null}}, "pointwise_initializer": {"class_name": "GlorotUniform", "config": {"seed": null}}, "depthwise_regularizer": null, "pointwise_regularizer": null, "depthwise_constraint": null, "pointwise_constraint": null}, "name": "separable_conv_2_normal_right1_2", "inbound_nodes": [[["activation_50", 0, 0, {}]]]}, {"class_name": "SeparableConv2D", "config": {"name": "separable_conv_2_normal_left2_2", "trainable": true, "dtype": "float32", "filters": 44, "kernel_size": [5, 5], "strides": [1, 1], "padding": "same", "data_format": "channels_last", "dilation_rate": [1, 1], "groups": 1, "activation": "linear", "use_bias": false, "kernel_initializer": {"class_name": "HeNormal", "config": {"seed": null}}, "bias_initializer": {"class_name": "Zeros", "config": {}, "shared_object_id": 666}, "kernel_regularizer": null, "bias_regularizer": null, "activity_regularizer": null, "kernel_constraint": null, "bias_constraint": null, "depth_multiplier": 1, "depthwise_initializer": {"class_name": "GlorotUniform", "config": {"seed": null}}, "pointwise_initializer": {"class_name": "GlorotUniform", "config": {"seed": null}}, "depthwise_regularizer": null, "pointwise_regularizer": null, "depthwise_constraint": null, "pointwise_constraint": null}, "name": "separable_conv_2_normal_left2_2", "inbound_nodes": [[["activation_52", 0, 0, {}]]]}, {"class_name": "SeparableConv2D", "config": {"name": "separable_conv_2_normal_right2_2", "trainable": true, "dtype": "float32", "filters": 44, "kernel_size": [3, 3], "strides": [1, 1], "padding": "same", "data_format": "channels_last", "dilation_rate": [1, 1], "groups": 1, "activation": "linear", "use_bias": false, "kernel_initializer": {"class_name": "HeNormal", "config": {"seed": null}}, "bias_initializer": {"class_name": "Zeros", "config": {}, "shared_object_id": 671}, "kernel_regularizer": null, "bias_regularizer": null, "activity_regularizer": null, "kernel_constraint": null, "bias_constraint": null, "depth_multiplier": 1, "depthwise_initializer": {"class_name": "GlorotUniform", "config": {"seed": null}}, "pointwise_initializer": {"class_name": "GlorotUniform", "config": {"seed": null}}, "depthwise_regularizer": null, "pointwise_regularizer": null, "depthwise_constraint": null, "pointwise_constraint": null}, "name": "separable_conv_2_normal_right2_2", "inbound_nodes": [[["activation_54", 0, 0, {}]]]}, {"class_name": "SeparableConv2D", "config": {"name": "separable_conv_2_normal_left5_2", "trainable": true, "dtype": "float32", "filters": 44, "kernel_size": [3, 3], "strides": [1, 1], "padding": "same", "data_format": "channels_last", "dilation_rate": [1, 1], "groups": 1, "activation": "linear", "use_bias": false, "kernel_initializer": {"class_name": "HeNormal", "config": {"seed": null}}, "bias_initializer": {"class_name": "Zeros", "config": {}, "shared_object_id": 676}, "kernel_regularizer": null, "bias_regularizer": null, "activity_regularizer": null, "kernel_constraint": null, "bias_constraint": null, "depth_multiplier": 1, "depthwise_initializer": {"class_name": "GlorotUniform", "config": {"seed": null}}, "pointwise_initializer": {"class_name": "GlorotUniform", "config": {"seed": null}}, "depthwise_regularizer": null, "pointwise_regularizer": null, "depthwise_constraint": null, "pointwise_constraint": null}, "name": "separable_conv_2_normal_left5_2", "inbound_nodes": [[["activation_56", 0, 0, {}]]]}, {"class_name": "BatchNormalization", "config": {"name": "separable_conv_2_bn_normal_left1_2", "trainable": true, "dtype": "float32", "axis": [3], "momentum": 0.9997, "epsilon": 0.001, "center": true, "scale": true, "beta_initializer": {"class_name": "Zeros", "config": {}}, "gamma_initializer": {"class_name": "Ones", "config": {}}, "moving_mean_initializer": {"class_name": "Zeros", "config": {}}, "moving_variance_initializer": {"class_name": "Ones", "config": {}}, "beta_regularizer": null, "gamma_regularizer": null, "beta_constraint": null, "gamma_constraint": null}, "name": "separable_conv_2_bn_normal_left1_2", "inbound_nodes": [[["separable_conv_2_normal_left1_2", 0, 0, {}]]]}, {"class_name": "BatchNormalization", "config": {"name": "separable_conv_2_bn_normal_right1_2", "trainable": true, "dtype": "float32", "axis": [3], "momentum": 0.9997, "epsilon": 0.001, "center": true, "scale": true, "beta_initializer": {"class_name": "Zeros", "config": {}}, "gamma_initializer": {"class_name": "Ones", "config": {}}, "moving_mean_initializer": {"class_name": "Zeros", "config": {}}, "moving_variance_initializer": {"class_name": "Ones", "config": {}}, "beta_regularizer": null, "gamma_regularizer": null, "beta_constraint": null, "gamma_constraint": null}, "name": "separable_conv_2_bn_normal_right1_2", "inbound_nodes": [[["separable_conv_2_normal_right1_2", 0, 0, {}]]]}, {"class_name": "BatchNormalization", "config": {"name": "separable_conv_2_bn_normal_left2_2", "trainable": true, "dtype": "float32", "axis": [3], "momentum": 0.9997, "epsilon": 0.001, "center": true, "scale": true, "beta_initializer": {"class_name": "Zeros", "config": {}}, "gamma_initializer": {"class_name": "Ones", "config": {}}, "moving_mean_initializer": {"class_name": "Zeros", "config": {}}, "moving_variance_initializer": {"class_name": "Ones", "config": {}}, "beta_regularizer": null, "gamma_regularizer": null, "beta_constraint": null, "gamma_constraint": null}, "name": "separable_conv_2_bn_normal_left2_2", "inbound_nodes": [[["separable_conv_2_normal_left2_2", 0, 0, {}]]]}, {"class_name": "BatchNormalization", "config": {"name": "separable_conv_2_bn_normal_right2_2", "trainable": true, "dtype": "float32", "axis": [3], "momentum": 0.9997, "epsilon": 0.001, "center": true, "scale": true, "beta_initializer": {"class_name": "Zeros", "config": {}}, "gamma_initializer": {"class_name": "Ones", "config": {}}, "moving_mean_initializer": {"class_name": "Zeros", "config": {}}, "moving_variance_initializer": {"class_name": "Ones", "config": {}}, "beta_regularizer": null, "gamma_regularizer": null, "beta_constraint": null, "gamma_constraint": null}, "name": "separable_conv_2_bn_normal_right2_2", "inbound_nodes": [[["separable_conv_2_normal_right2_2", 0, 0, {}]]]}, {"class_name": "AveragePooling2D", "config": {"name": "normal_left3_2", "trainable": true, "dtype": "float32", "pool_size": [3, 3], "padding": "same", "strides": [1, 1], "data_format": "channels_last"}, "name": "normal_left3_2", "inbound_nodes": [[["normal_bn_1_2", 0, 0, {}]]]}, {"class_name": "AveragePooling2D", "config": {"name": "normal_left4_2", "trainable": true, "dtype": "float32", "pool_size": [3, 3], "padding": "same", "strides": [1, 1], "data_format": "channels_last"}, "name": "normal_left4_2", "inbound_nodes": [[["adjust_bn_2", 0, 0, {}]]]}, {"class_name": "AveragePooling2D", "config": {"name": "normal_right4_2", "trainable": true, "dtype": "float32", "pool_size": [3, 3], "padding": "same", "strides": [1, 1], "data_format": "channels_last"}, "name": "normal_right4_2", "inbound_nodes": [[["adjust_bn_2", 0, 0, {}]]]}, {"class_name": "BatchNormalization", "config": {"name": "separable_conv_2_bn_normal_left5_2", "trainable": true, "dtype": "float32", "axis": [3], "momentum": 0.9997, "epsilon": 0.001, "center": true, "scale": true, "beta_initializer": {"class_name": "Zeros", "config": {}}, "gamma_initializer": {"class_name": "Ones", "config": {}}, "moving_mean_initializer": {"class_name": "Zeros", "config": {}}, "moving_variance_initializer": {"class_name": "Ones", "config": {}}, "beta_regularizer": null, "gamma_regularizer": null, "beta_constraint": null, "gamma_constraint": null}, "name": "separable_conv_2_bn_normal_left5_2", "inbound_nodes": [[["separable_conv_2_normal_left5_2", 0, 0, {}]]]}, {"class_name": "Add", "config": {"name": "normal_add_1_2", "trainable": true, "dtype": "float32"}, "name": "normal_add_1_2", "inbound_nodes": [[["separable_conv_2_bn_normal_left1_2", 0, 0, {}], ["separable_conv_2_bn_normal_right1_2", 0, 0, {}]]]}, {"class_name": "Add", "config": {"name": "normal_add_2_2", "trainable": true, "dtype": "float32"}, "name": "normal_add_2_2", "inbound_nodes": [[["separable_conv_2_bn_normal_left2_2", 0, 0, {}], ["separable_conv_2_bn_normal_right2_2", 0, 0, {}]]]}, {"class_name": "Add", "config": {"name": "normal_add_3_2", "trainable": true, "dtype": "float32"}, "name": "normal_add_3_2", "inbound_nodes": [[["normal_left3_2", 0, 0, {}], ["adjust_bn_2", 0, 0, {}]]]}, {"class_name": "Add", "config": {"name": "normal_add_4_2", "trainable": true, "dtype": "float32"}, "name": "normal_add_4_2", "inbound_nodes": [[["normal_left4_2", 0, 0, {}], ["normal_right4_2", 0, 0, {}]]]}, {"class_name": "Add", "config": {"name": "normal_add_5_2", "trainable": true, "dtype": "float32"}, "name": "normal_add_5_2", "inbound_nodes": [[["separable_conv_2_bn_normal_left5_2", 0, 0, {}], ["normal_bn_1_2", 0, 0, {}]]]}, {"class_name": "Concatenate", "config": {"name": "normal_concat_2", "trainable": true, "dtype": "float32", "axis": -1}, "name": "normal_concat_2", "inbound_nodes": [[["adjust_bn_2", 0, 0, {}], ["normal_add_1_2", 0, 0, {}], ["normal_add_2_2", 0, 0, {}], ["normal_add_3_2", 0, 0, {}], ["normal_add_4_2", 0, 0, {}], ["normal_add_5_2", 0, 0, {}]]]}, {"class_name": "Activation", "config": {"name": "activation_57", "trainable": true, "dtype": "float32", "activation": "relu"}, "name": "activation_57", "inbound_nodes": [[["normal_concat_1", 0, 0, {}]]]}, {"class_name": "Activation", "config": {"name": "activation_58", "trainable": true, "dtype": "float32", "activation": "relu"}, "name": "activation_58", "inbound_nodes": [[["normal_concat_2", 0, 0, {}]]]}, {"class_name": "Conv2D", "config": {"name": "adjust_conv_projection_3", "trainable": true, "dtype": "float32", "filters": 44, "kernel_size": [1, 1], "strides": [1, 1], "padding": "same", "data_format": "channels_last", "dilation_rate": [1, 1], "groups": 1, "activation": "linear", "use_bias": false, "kernel_initializer": {"class_name": "HeNormal", "config": {"seed": null}}, "bias_initializer": {"class_name": "Zeros", "config": {}}, "kernel_regularizer": null, "bias_regularizer": null, "activity_regularizer": null, "kernel_constraint": null, "bias_constraint": null}, "name": "adjust_conv_projection_3", "inbound_nodes": [[["activation_57", 0, 0, {}]]]}, {"class_name": "Conv2D", "config": {"name": "normal_conv_1_3", "trainable": true, "dtype": "float32", "filters": 44, "kernel_size": [1, 1], "strides": [1, 1], "padding": "same", "data_format": "channels_last", "dilation_rate": [1, 1], "groups": 1, "activation": "linear", "use_bias": false, "kernel_initializer": {"class_name": "HeNormal", "config": {"seed": null}}, "bias_initializer": {"class_name": "Zeros", "config": {}}, "kernel_regularizer": null, "bias_regularizer": null, "activity_regularizer": null, "kernel_constraint": null, "bias_constraint": null}, "name": "normal_conv_1_3", "inbound_nodes": [[["activation_58", 0, 0, {}]]]}, {"class_name": "BatchNormalization", "config": {"name": "adjust_bn_3", "trainable": true, "dtype": "float32", "axis": [3], "momentum": 0.9997, "epsilon": 0.001, "center": true, "scale": true, "beta_initializer": {"class_name": "Zeros", "config": {}}, "gamma_initializer": {"class_name": "Ones", "config": {}}, "moving_mean_initializer": {"class_name": "Zeros", "config": {}}, "moving_variance_initializer": {"class_name": "Ones", "config": {}}, "beta_regularizer": null, "gamma_regularizer": null, "beta_constraint": null, "gamma_constraint": null}, "name": "adjust_bn_3", "inbound_nodes": [[["adjust_conv_projection_3", 0, 0, {}]]]}, {"class_name": "BatchNormalization", "config": {"name": "normal_bn_1_3", "trainable": true, "dtype": "float32", "axis": [3], "momentum": 0.9997, "epsilon": 0.001, "center": true, "scale": true, "beta_initializer": {"class_name": "Zeros", "config": {}}, "gamma_initializer": {"class_name": "Ones", "config": {}}, "moving_mean_initializer": {"class_name": "Zeros", "config": {}}, "moving_variance_initializer": {"class_name": "Ones", "config": {}}, "beta_regularizer": null, "gamma_regularizer": null, "beta_constraint": null, "gamma_constraint": null}, "name": "normal_bn_1_3", "inbound_nodes": [[["normal_conv_1_3", 0, 0, {}]]]}, {"class_name": "Activation", "config": {"name": "activation_59", "trainable": true, "dtype": "float32", "activation": "relu"}, "name": "activation_59", "inbound_nodes": [[["normal_bn_1_3", 0, 0, {}]]]}, {"class_name": "Activation", "config": {"name": "activation_61", "trainable": true, "dtype": "float32", "activation": "relu"}, "name": "activation_61", "inbound_nodes": [[["adjust_bn_3", 0, 0, {}]]]}, {"class_name": "Activation", "config": {"name": "activation_63", "trainable": true, "dtype": "float32", "activation": "relu"}, "name": "activation_63", "inbound_nodes": [[["adjust_bn_3", 0, 0, {}]]]}, {"class_name": "Activation", "config": {"name": "activation_65", "trainable": true, "dtype": "float32", "activation": "relu"}, "name": "activation_65", "inbound_nodes": [[["adjust_bn_3", 0, 0, {}]]]}, {"class_name": "Activation", "config": {"name": "activation_67", "trainable": true, "dtype": "float32", "activation": "relu"}, "name": "activation_67", "inbound_nodes": [[["normal_bn_1_3", 0, 0, {}]]]}, {"class_name": "SeparableConv2D", "config": {"name": "separable_conv_1_normal_left1_3", "trainable": true, "dtype": "float32", "filters": 44, "kernel_size": [5, 5], "strides": [1, 1], "padding": "same", "data_format": "channels_last", "dilation_rate": [1, 1], "groups": 1, "activation": "linear", "use_bias": false, "kernel_initializer": {"class_name": "HeNormal", "config": {"seed": null}}, "bias_initializer": {"class_name": "Zeros", "config": {}, "shared_object_id": 738}, "kernel_regularizer": null, "bias_regularizer": null, "activity_regularizer": null, "kernel_constraint": null, "bias_constraint": null, "depth_multiplier": 1, "depthwise_initializer": {"class_name": "GlorotUniform", "config": {"seed": null}}, "pointwise_initializer": {"class_name": "GlorotUniform", "config": {"seed": null}}, "depthwise_regularizer": null, "pointwise_regularizer": null, "depthwise_constraint": null, "pointwise_constraint": null}, "name": "separable_conv_1_normal_left1_3", "inbound_nodes": [[["activation_59", 0, 0, {}]]]}, {"class_name": "SeparableConv2D", "config": {"name": "separable_conv_1_normal_right1_3", "trainable": true, "dtype": "float32", "filters": 44, "kernel_size": [3, 3], "strides": [1, 1], "padding": "same", "data_format": "channels_last", "dilation_rate": [1, 1], "groups": 1, "activation": "linear", "use_bias": false, "kernel_initializer": {"class_name": "HeNormal", "config": {"seed": null}}, "bias_initializer": {"class_name": "Zeros", "config": {}, "shared_object_id": 743}, "kernel_regularizer": null, "bias_regularizer": null, "activity_regularizer": null, "kernel_constraint": null, "bias_constraint": null, "depth_multiplier": 1, "depthwise_initializer": {"class_name": "GlorotUniform", "config": {"seed": null}}, "pointwise_initializer": {"class_name": "GlorotUniform", "config": {"seed": null}}, "depthwise_regularizer": null, "pointwise_regularizer": null, "depthwise_constraint": null, "pointwise_constraint": null}, "name": "separable_conv_1_normal_right1_3", "inbound_nodes": [[["activation_61", 0, 0, {}]]]}, {"class_name": "SeparableConv2D", "config": {"name": "separable_conv_1_normal_left2_3", "trainable": true, "dtype": "float32", "filters": 44, "kernel_size": [5, 5], "strides": [1, 1], "padding": "same", "data_format": "channels_last", "dilation_rate": [1, 1], "groups": 1, "activation": "linear", "use_bias": false, "kernel_initializer": {"class_name": "HeNormal", "config": {"seed": null}}, "bias_initializer": {"class_name": "Zeros", "config": {}, "shared_object_id": 748}, "kernel_regularizer": null, "bias_regularizer": null, "activity_regularizer": null, "kernel_constraint": null, "bias_constraint": null, "depth_multiplier": 1, "depthwise_initializer": {"class_name": "GlorotUniform", "config": {"seed": null}}, "pointwise_initializer": {"class_name": "GlorotUniform", "config": {"seed": null}}, "depthwise_regularizer": null, "pointwise_regularizer": null, "depthwise_constraint": null, "pointwise_constraint": null}, "name": "separable_conv_1_normal_left2_3", "inbound_nodes": [[["activation_63", 0, 0, {}]]]}, {"class_name": "SeparableConv2D", "config": {"name": "separable_conv_1_normal_right2_3", "trainable": true, "dtype": "float32", "filters": 44, "kernel_size": [3, 3], "strides": [1, 1], "padding": "same", "data_format": "channels_last", "dilation_rate": [1, 1], "groups": 1, "activation": "linear", "use_bias": false, "kernel_initializer": {"class_name": "HeNormal", "config": {"seed": null}}, "bias_initializer": {"class_name": "Zeros", "config": {}, "shared_object_id": 753}, "kernel_regularizer": null, "bias_regularizer": null, "activity_regularizer": null, "kernel_constraint": null, "bias_constraint": null, "depth_multiplier": 1, "depthwise_initializer": {"class_name": "GlorotUniform", "config": {"seed": null}}, "pointwise_initializer": {"class_name": "GlorotUniform", "config": {"seed": null}}, "depthwise_regularizer": null, "pointwise_regularizer": null, "depthwise_constraint": null, "pointwise_constraint": null}, "name": "separable_conv_1_normal_right2_3", "inbound_nodes": [[["activation_65", 0, 0, {}]]]}, {"class_name": "SeparableConv2D", "config": {"name": "separable_conv_1_normal_left5_3", "trainable": true, "dtype": "float32", "filters": 44, "kernel_size": [3, 3], "strides": [1, 1], "padding": "same", "data_format": "channels_last", "dilation_rate": [1, 1], "groups": 1, "activation": "linear", "use_bias": false, "kernel_initializer": {"class_name": "HeNormal", "config": {"seed": null}}, "bias_initializer": {"class_name": "Zeros", "config": {}, "shared_object_id": 758}, "kernel_regularizer": null, "bias_regularizer": null, "activity_regularizer": null, "kernel_constraint": null, "bias_constraint": null, "depth_multiplier": 1, "depthwise_initializer": {"class_name": "GlorotUniform", "config": {"seed": null}}, "pointwise_initializer": {"class_name": "GlorotUniform", "config": {"seed": null}}, "depthwise_regularizer": null, "pointwise_regularizer": null, "depthwise_constraint": null, "pointwise_constraint": null}, "name": "separable_conv_1_normal_left5_3", "inbound_nodes": [[["activation_67", 0, 0, {}]]]}, {"class_name": "BatchNormalization", "config": {"name": "separable_conv_1_bn_normal_left1_3", "trainable": true, "dtype": "float32", "axis": [3], "momentum": 0.9997, "epsilon": 0.001, "center": true, "scale": true, "beta_initializer": {"class_name": "Zeros", "config": {}}, "gamma_initializer": {"class_name": "Ones", "config": {}}, "moving_mean_initializer": {"class_name": "Zeros", "config": {}}, "moving_variance_initializer": {"class_name": "Ones", "config": {}}, "beta_regularizer": null, "gamma_regularizer": null, "beta_constraint": null, "gamma_constraint": null}, "name": "separable_conv_1_bn_normal_left1_3", "inbound_nodes": [[["separable_conv_1_normal_left1_3", 0, 0, {}]]]}, {"class_name": "BatchNormalization", "config": {"name": "separable_conv_1_bn_normal_right1_3", "trainable": true, "dtype": "float32", "axis": [3], "momentum": 0.9997, "epsilon": 0.001, "center": true, "scale": true, "beta_initializer": {"class_name": "Zeros", "config": {}}, "gamma_initializer": {"class_name": "Ones", "config": {}}, "moving_mean_initializer": {"class_name": "Zeros", "config": {}}, "moving_variance_initializer": {"class_name": "Ones", "config": {}}, "beta_regularizer": null, "gamma_regularizer": null, "beta_constraint": null, "gamma_constraint": null}, "name": "separable_conv_1_bn_normal_right1_3", "inbound_nodes": [[["separable_conv_1_normal_right1_3", 0, 0, {}]]]}, {"class_name": "BatchNormalization", "config": {"name": "separable_conv_1_bn_normal_left2_3", "trainable": true, "dtype": "float32", "axis": [3], "momentum": 0.9997, "epsilon": 0.001, "center": true, "scale": true, "beta_initializer": {"class_name": "Zeros", "config": {}}, "gamma_initializer": {"class_name": "Ones", "config": {}}, "moving_mean_initializer": {"class_name": "Zeros", "config": {}}, "moving_variance_initializer": {"class_name": "Ones", "config": {}}, "beta_regularizer": null, "gamma_regularizer": null, "beta_constraint": null, "gamma_constraint": null}, "name": "separable_conv_1_bn_normal_left2_3", "inbound_nodes": [[["separable_conv_1_normal_left2_3", 0, 0, {}]]]}, {"class_name": "BatchNormalization", "config": {"name": "separable_conv_1_bn_normal_right2_3", "trainable": true, "dtype": "float32", "axis": [3], "momentum": 0.9997, "epsilon": 0.001, "center": true, "scale": true, "beta_initializer": {"class_name": "Zeros", "config": {}}, "gamma_initializer": {"class_name": "Ones", "config": {}}, "moving_mean_initializer": {"class_name": "Zeros", "config": {}}, "moving_variance_initializer": {"class_name": "Ones", "config": {}}, "beta_regularizer": null, "gamma_regularizer": null, "beta_constraint": null, "gamma_constraint": null}, "name": "separable_conv_1_bn_normal_right2_3", "inbound_nodes": [[["separable_conv_1_normal_right2_3", 0, 0, {}]]]}, {"class_name": "BatchNormalization", "config": {"name": "separable_conv_1_bn_normal_left5_3", "trainable": true, "dtype": "float32", "axis": [3], "momentum": 0.9997, "epsilon": 0.001, "center": true, "scale": true, "beta_initializer": {"class_name": "Zeros", "config": {}}, "gamma_initializer": {"class_name": "Ones", "config": {}}, "moving_mean_initializer": {"class_name": "Zeros", "config": {}}, "moving_variance_initializer": {"class_name": "Ones", "config": {}}, "beta_regularizer": null, "gamma_regularizer": null, "beta_constraint": null, "gamma_constraint": null}, "name": "separable_conv_1_bn_normal_left5_3", "inbound_nodes": [[["separable_conv_1_normal_left5_3", 0, 0, {}]]]}, {"class_name": "Activation", "config": {"name": "activation_60", "trainable": true, "dtype": "float32", "activation": "relu"}, "name": "activation_60", "inbound_nodes": [[["separable_conv_1_bn_normal_left1_3", 0, 0, {}]]]}, {"class_name": "Activation", "config": {"name": "activation_62", "trainable": true, "dtype": "float32", "activation": "relu"}, "name": "activation_62", "inbound_nodes": [[["separable_conv_1_bn_normal_right1_3", 0, 0, {}]]]}, {"class_name": "Activation", "config": {"name": "activation_64", "trainable": true, "dtype": "float32", "activation": "relu"}, "name": "activation_64", "inbound_nodes": [[["separable_conv_1_bn_normal_left2_3", 0, 0, {}]]]}, {"class_name": "Activation", "config": {"name": "activation_66", "trainable": true, "dtype": "float32", "activation": "relu"}, "name": "activation_66", "inbound_nodes": [[["separable_conv_1_bn_normal_right2_3", 0, 0, {}]]]}, {"class_name": "Activation", "config": {"name": "activation_68", "trainable": true, "dtype": "float32", "activation": "relu"}, "name": "activation_68", "inbound_nodes": [[["separable_conv_1_bn_normal_left5_3", 0, 0, {}]]]}, {"class_name": "SeparableConv2D", "config": {"name": "separable_conv_2_normal_left1_3", "trainable": true, "dtype": "float32", "filters": 44, "kernel_size": [5, 5], "strides": [1, 1], "padding": "same", "data_format": "channels_last", "dilation_rate": [1, 1], "groups": 1, "activation": "linear", "use_bias": false, "kernel_initializer": {"class_name": "HeNormal", "config": {"seed": null}}, "bias_initializer": {"class_name": "Zeros", "config": {}, "shared_object_id": 793}, "kernel_regularizer": null, "bias_regularizer": null, "activity_regularizer": null, "kernel_constraint": null, "bias_constraint": null, "depth_multiplier": 1, "depthwise_initializer": {"class_name": "GlorotUniform", "config": {"seed": null}}, "pointwise_initializer": {"class_name": "GlorotUniform", "config": {"seed": null}}, "depthwise_regularizer": null, "pointwise_regularizer": null, "depthwise_constraint": null, "pointwise_constraint": null}, "name": "separable_conv_2_normal_left1_3", "inbound_nodes": [[["activation_60", 0, 0, {}]]]}, {"class_name": "SeparableConv2D", "config": {"name": "separable_conv_2_normal_right1_3", "trainable": true, "dtype": "float32", "filters": 44, "kernel_size": [3, 3], "strides": [1, 1], "padding": "same", "data_format": "channels_last", "dilation_rate": [1, 1], "groups": 1, "activation": "linear", "use_bias": false, "kernel_initializer": {"class_name": "HeNormal", "config": {"seed": null}}, "bias_initializer": {"class_name": "Zeros", "config": {}, "shared_object_id": 798}, "kernel_regularizer": null, "bias_regularizer": null, "activity_regularizer": null, "kernel_constraint": null, "bias_constraint": null, "depth_multiplier": 1, "depthwise_initializer": {"class_name": "GlorotUniform", "config": {"seed": null}}, "pointwise_initializer": {"class_name": "GlorotUniform", "config": {"seed": null}}, "depthwise_regularizer": null, "pointwise_regularizer": null, "depthwise_constraint": null, "pointwise_constraint": null}, "name": "separable_conv_2_normal_right1_3", "inbound_nodes": [[["activation_62", 0, 0, {}]]]}, {"class_name": "SeparableConv2D", "config": {"name": "separable_conv_2_normal_left2_3", "trainable": true, "dtype": "float32", "filters": 44, "kernel_size": [5, 5], "strides": [1, 1], "padding": "same", "data_format": "channels_last", "dilation_rate": [1, 1], "groups": 1, "activation": "linear", "use_bias": false, "kernel_initializer": {"class_name": "HeNormal", "config": {"seed": null}}, "bias_initializer": {"class_name": "Zeros", "config": {}, "shared_object_id": 803}, "kernel_regularizer": null, "bias_regularizer": null, "activity_regularizer": null, "kernel_constraint": null, "bias_constraint": null, "depth_multiplier": 1, "depthwise_initializer": {"class_name": "GlorotUniform", "config": {"seed": null}}, "pointwise_initializer": {"class_name": "GlorotUniform", "config": {"seed": null}}, "depthwise_regularizer": null, "pointwise_regularizer": null, "depthwise_constraint": null, "pointwise_constraint": null}, "name": "separable_conv_2_normal_left2_3", "inbound_nodes": [[["activation_64", 0, 0, {}]]]}, {"class_name": "SeparableConv2D", "config": {"name": "separable_conv_2_normal_right2_3", "trainable": true, "dtype": "float32", "filters": 44, "kernel_size": [3, 3], "strides": [1, 1], "padding": "same", "data_format": "channels_last", "dilation_rate": [1, 1], "groups": 1, "activation": "linear", "use_bias": false, "kernel_initializer": {"class_name": "HeNormal", "config": {"seed": null}}, "bias_initializer": {"class_name": "Zeros", "config": {}, "shared_object_id": 808}, "kernel_regularizer": null, "bias_regularizer": null, "activity_regularizer": null, "kernel_constraint": null, "bias_constraint": null, "depth_multiplier": 1, "depthwise_initializer": {"class_name": "GlorotUniform", "config": {"seed": null}}, "pointwise_initializer": {"class_name": "GlorotUniform", "config": {"seed": null}}, "depthwise_regularizer": null, "pointwise_regularizer": null, "depthwise_constraint": null, "pointwise_constraint": null}, "name": "separable_conv_2_normal_right2_3", "inbound_nodes": [[["activation_66", 0, 0, {}]]]}, {"class_name": "SeparableConv2D", "config": {"name": "separable_conv_2_normal_left5_3", "trainable": true, "dtype": "float32", "filters": 44, "kernel_size": [3, 3], "strides": [1, 1], "padding": "same", "data_format": "channels_last", "dilation_rate": [1, 1], "groups": 1, "activation": "linear…
nv_1_reduction_right2_stem_1/depthwise_kernel", "shape": [7, 7, 32, 1], "dtype": "float32"}, {"name": "separable_conv_1_reduction_right2_stem_1/pointwise_kernel", "shape": [1, 1, 32, 11], "dtype": "float32"}, {"name": "separable_conv_1_reduction_right2_stem_2/depthwise_kernel", "shape": [7, 7, 22, 1], "dtype": "float32"}, {"name": "separable_conv_1_reduction_right2_stem_2/pointwise_kernel", "shape": [1, 1, 22, 22], "dtype": "float32"}, {"name": "separable_conv_1_reduction_right3_reduce_4/depthwise_kernel", "shape": [5, 5, 88, 1], "dtype": "float32"}, {"name": "separable_conv_1_reduction_right3_reduce_4/pointwise_kernel", "shape": [1, 1, 88, 88], "dtype": "float32"}, {"name": "separable_conv_1_reduction_right3_reduce_8/depthwise_kernel", "shape": [5, 5, 176, 1], "dtype": "float32"}, {"name": "separable_conv_1_reduction_right3_reduce_8/pointwise_kernel", "shape": [1, 1, 176, 176], "dtype": "float32"}, {"name": "separable_conv_1_reduction_right3_stem_1/depthwise_kernel", "shape": [5, 5, 32, 1], "dtype": "float32"}, {"name": "separable_conv_1_reduction_right3_stem_1/pointwise_kernel", "shape": [1, 1, 32, 11], "dtype": "float32"}, {"name": "separable_conv_1_reduction_right3_stem_2/depthwise_kernel", "shape": [5, 5, 22, 1], "dtype": "float32"}, {"name": "separable_conv_1_reduction_right3_stem_2/pointwise_kernel", "shape": [1, 1, 22, 22], "dtype": "float32"}, {"name": "separable_conv_2_bn_normal_left1_0/gamma", "shape": [44], "dtype": "float32"}, {"name": "separable_conv_2_bn_normal_left1_0/beta", "shape": [44], "dtype": "float32"}, {"name": "separable_conv_2_bn_normal_left1_0/moving_mean", "shape": [44], "dtype": "float32"}, {"name": "separable_conv_2_bn_normal_left1_0/moving_variance", "shape": [44], "dtype": "float32"}, {"name": "separable_conv_2_bn_normal_left1_1/gamma", "shape": [44], "dtype": "float32"}, {"name": "separable_conv_2_bn_normal_left1_1/beta", "shape": [44], "dtype": "float32"}, {"name": "separable_conv_2_bn_normal_left1_1/moving_mean", "shape": [44], "dtype": "float32"}, {"name": "separable_conv_2_bn_normal_left1_1/moving_variance", "shape": [44], "dtype": "float32"}, {"name": "separable_conv_2_bn_normal_left1_10/gamma", "shape": [176], "dtype": "float32"}, {"name": "separable_conv_2_bn_normal_left1_10/beta", "shape": [176], "dtype": "float32"}, {"name": "separable_conv_2_bn_normal_left1_10/moving_mean", "shape": [176], "dtype": "float32"}, {"name": "separable_conv_2_bn_normal_left1_10/moving_variance", "shape": [176], "dtype": "float32"}, {"name": "separable_conv_2_bn_normal_left1_11/gamma", "shape": [176], "dtype": "float32"}, {"name": "separable_conv_2_bn_normal_left1_11/beta", "shape": [176], "dtype": "float32"}, {"name": "separable_conv_2_bn_normal_left1_11/moving_mean", "shape": [176], "dtype": "float32"}, {"name": "separable_conv_2_bn_normal_left1_11/moving_variance", "shape": [176], "dtype": "float32"}, {"name": "separable_conv_2_bn_normal_left1_12/gamma", "shape": [176], "dtype": "float32"}, {"name": "separable_conv_2_bn_normal_left1_12/beta", "shape": [176], "dtype": "float32"}, {"name": "separable_conv_2_bn_normal_left1_12/moving_mean", "shape": [176], "dtype": "float32"}, {"name": "separable_conv_2_bn_normal_left1_12/moving_variance", "shape": [176], "dtype": "float32"}, {"name": "separable_conv_2_bn_normal_left1_2/gamma", "shape": [44], "dtype": "float32"}, {"name": "separable_conv_2_bn_normal_left1_2/beta", "shape": [44], "dtype": "float32"}, {"name": "separable_conv_2_bn_normal_left1_2/moving_mean", "shape": [44], "dtype": "float32"}, {"name": "separable_conv_2_bn_normal_left1_2/moving_variance", "shape": [44], "dtype": "float32"}, {"name": "separable_conv_2_bn_normal_left1_3/gamma", "shape": [44], "dtype": "float32"}, {"name": "separable_conv_2_bn_normal_left1_3/beta", "shape": [44], "dtype": "float32"}, {"name": "separable_conv_2_bn_normal_left1_3/moving_mean", "shape": [44], "dtype": "float32"}, {"name": "separable_conv_2_bn_normal_left1_3/moving_variance", "shape": [44], "dtype": "float32"}, {"name": "separable_conv_2_bn_normal_left1_5/gamma", "shape": [88], "dtype": "float32"}, {"name": "separable_conv_2_bn_normal_left1_5/beta", "shape": [88], "dtype": "float32"}, {"name": "separable_conv_2_bn_normal_left1_5/moving_mean", "shape": [88], "dtype": "float32"}, {"name": "separable_conv_2_bn_normal_left1_5/moving_variance", "shape": [88], "dtype": "float32"}, {"name": "separable_conv_2_bn_normal_left1_6/gamma", "shape": [88], "dtype": "float32"}, {"name": "separable_conv_2_bn_normal_left1_6/beta", "shape": [88], "dtype": "float32"}, {"name": "separable_conv_2_bn_normal_left1_6/moving_mean", "shape": [88], "dtype": "float32"}, {"name": "separable_conv_2_bn_normal_left1_6/moving_variance", "shape": [88], "dtype": "float32"}, {"name": "separable_conv_2_bn_normal_left1_7/gamma", "shape": [88], "dtype": "float32"}, {"name": "separable_conv_2_bn_normal_left1_7/beta", "shape": [88], "dtype": "float32"}, {"name": "separable_conv_2_bn_normal_left1_7/moving_mean", "shape": [88], "dtype": "float32"}, {"name": "separable_conv_2_bn_normal_left1_7/moving_variance", "shape": [88], "dtype": "float32"}, {"name": "separable_conv_2_bn_normal_left1_8/gamma", "shape": [88], "dtype": "float32"}, {"name": "separable_conv_2_bn_normal_left1_8/beta", "shape": [88], "dtype": "float32"}, {"name": "separable_conv_2_bn_normal_left1_8/moving_mean", "shape": [88], "dtype": "float32"}, {"name": "separable_conv_2_bn_normal_left1_8/moving_variance", "shape": [88], "dtype": "float32"}, {"name": "separable_conv_2_bn_normal_left1_9/gamma", "shape": [176], "dtype": "float32"}, {"name": "separable_conv_2_bn_normal_left1_9/beta", "shape": [176], "dtype": "float32"}, {"name": "separable_conv_2_bn_normal_left1_9/moving_mean", "shape": [176], "dtype": "float32"}, {"name": "separable_conv_2_bn_normal_left1_9/moving_variance", "shape": [176], "dtype": "float32"}, {"name": "separable_conv_2_bn_normal_left2_0/gamma", "shape": [44], "dtype": "float32"}, {"name": "separable_conv_2_bn_normal_left2_0/beta", "shape": [44], "dtype": "float32"}, {"name": "separable_conv_2_bn_normal_left2_0/moving_mean", "shape": [44], "dtype": "float32"}, {"name": "separable_conv_2_bn_normal_left2_0/moving_variance", "shape": [44], "dtype": "float32"}, {"name": "separable_conv_2_bn_normal_left2_1/gamma", "shape": [44], "dtype": "float32"}, {"name": "separable_conv_2_bn_normal_left2_1/beta", "shape": [44], "dtype": "float32"}, {"name": "separable_conv_2_bn_normal_left2_1/moving_mean", "shape": [44], "dtype": "float32"}, {"name": "separable_conv_2_bn_normal_left2_1/moving_variance", "shape": [44], "dtype": "float32"}, {"name": "separable_conv_2_bn_normal_left2_10/gamma", "shape": [176], "dtype": "float32"}, {"name": "separable_conv_2_bn_normal_left2_10/beta", "shape": [176], "dtype": "float32"}, {"name": "separable_conv_2_bn_normal_left2_10/moving_mean", "shape": [176], "dtype": "float32"}, {"name": "separable_conv_2_bn_normal_left2_10/moving_variance", "shape": [176], "dtype": "float32"}, {"name": "separable_conv_2_bn_normal_left2_11/gamma", "shape": [176], "dtype": "float32"}, {"name": "separable_conv_2_bn_normal_left2_11/beta", "shape": [176], "dtype": "float32"}, {"name": "separable_conv_2_bn_normal_left2_11/moving_mean", "shape": [176], "dtype": "float32"}, {"name": "separable_conv_2_bn_normal_left2_11/moving_variance", "shape": [176], "dtype": "float32"}, {"name": "separable_conv_2_bn_normal_left2_12/gamma", "shape": [176], "dtype": "float32"}, {"name": "separable_conv_2_bn_normal_left2_12/beta", "shape": [176], "dtype": "float32"}, {"name": "separable_conv_2_bn_normal_left2_12/moving_mean", "shape": [176], "dtype": "float32"}, {"name": "separable_conv_2_bn_normal_left2_12/moving_variance", "shape": [176], "dtype": "float32"}, {"name": "separable_conv_2_bn_normal_left2_2/gamma", "shape": [44], "dtype": "float32"}, {"name": "separable_conv_2_bn_normal_left2_2/beta", "shape": [44], "dtype": "float32"}, {"name": "separable_conv_2_bn_normal_left2_2/moving_mean", "shape": [44], "dtype": "float32"}, {"name": "separable_conv_2_bn_normal_left2_2/moving_variance", "shape": [44], "dtype": "float32"}, {"name": "separable_conv_2_bn_normal_left2_3/gamma", "shape": [44], "dtype": "float32"}, {"name": "separable_conv_2_bn_normal_left2_3/beta", "shape": [44], "dtype": "float32"}, {"name": "separable_conv_2_bn_normal_left2_3/moving_mean", "shape": [44], "dtype": "float32"}, {"name": "separable_conv_2_bn_normal_left2_3/moving_variance", "shape": [44], "dtype": "float32"}, {"name": "separable_conv_2_bn_normal_left2_5/gamma", "shape": [88], "dtype": "float32"}, {"name": "separable_conv_2_bn_normal_left2_5/beta", "shape": [88], "dtype": "float32"}, {"name": "separable_conv_2_bn_normal_left2_5/moving_mean", "shape": [88], "dtype": "float32"}, {"name": "separable_conv_2_bn_normal_left2_5/moving_variance", "shape": [88], "dtype": "float32"}, {"name": "separable_conv_2_bn_normal_left2_6/gamma", "shape": [88], "dtype": "float32"}, {"name": "separable_conv_2_bn_normal_left2_6/beta", "shape": [88], "dtype": "float32"}, {"name": "separable_conv_2_bn_normal_left2_6/moving_mean", "shape": [88], "dtype": "float32"}, {"name": "separable_conv_2_bn_normal_left2_6/moving_variance", "shape": [88], "dtype": "float32"}, {"name": "separable_conv_2_bn_normal_left2_7/gamma", "shape": [88], "dtype": "float32"}, {"name": "separable_conv_2_bn_normal_left2_7/beta", "shape": [88], "dtype": "float32"}, {"name": "separable_conv_2_bn_normal_left2_7/moving_mean", "shape": [88], "dtype": "float32"}, {"name": "separable_conv_2_bn_normal_left2_7/moving_variance", "shape": [88], "dtype": "float32"}, {"name": "separable_conv_2_bn_normal_left2_8/gamma", "shape": [88], "dtype": "float32"}, {"name": "separable_conv_2_bn_normal_left2_8/beta", "shape": [88], "dtype": "float32"}, {"name": "separable_conv_2_bn_normal_left2_8/moving_mean", "shape": [88], "dtype": "float32"}, {"name": "separable_conv_2_bn_normal_left2_8/moving_variance", "shape": [88], "dtype": "float32"}, {"name": "separable_conv_2_bn_normal_left2_9/gamma", "shape": [176], "dtype": "float32"}, {"name": "separable_conv_2_bn_normal_left2_9/beta", "shape": [176], "dtype": "float32"}, {"name": "separable_conv_2_bn_normal_left2_9/moving_mean", "shape": [176], "dtype": "float32"}, {"name": "separable_conv_2_bn_normal_left2_9/moving_variance", "shape": [176], "dtype": "float32"}, {"name": "separable_conv_2_bn_normal_left5_0/gamma", "shape": [44], "dtype": "float32"}, {"name": "separable_conv_2_bn_normal_left5_0/beta", "shape": [44], "dtype": "float32"}, {"name": "separable_conv_2_bn_normal_left5_0/moving_mean", "shape": [44], "dtype": "float32"}, {"name": "separable_conv_2_bn_normal_left5_0/moving_variance", "shape": [44], "dtype": "float32"}, {"name": "separable_conv_2_bn_normal_left5_1/gamma", "shape": [44], "dtype": "float32"}, {"name": "separable_conv_2_bn_normal_left5_1/beta", "shape": [44], "dtype": "float32"}, {"name": "separable_conv_2_bn_normal_left5_1/moving_mean", "shape": [44], "dtype": "float32"}, {"name": "separable_conv_2_bn_normal_left5_1/moving_variance", "shape": [44], "dtype": "float32"}, {"name": "separable_conv_2_bn_normal_left5_10/gamma", "shape": [176], "dtype": "float32"}, {"name": "separable_conv_2_bn_normal_left5_10/beta", "shape": [176], "dtype": "float32"}, {"name": "separable_conv_2_bn_normal_left5_10/moving_mean", "shape": [176], "dtype": "float32"}, {"name": "separable_conv_2_bn_normal_left5_10/moving_variance", "shape": [176], "dtype": "float32"}, {"name": "separable_conv_2_bn_normal_left5_11/gamma", "shape": [176], "dtype": "float32"}, {"name": "separable_conv_2_bn_normal_left5_11/beta", "shape": [176], "dtype": "float32"}, {"name": "separable_conv_2_bn_normal_left5_11/moving_mean", "shape": [176], "dtype": "float32"}, {"name": "separable_conv_2_bn_normal_left5_11/moving_variance", "shape": [176], "dtype": "float32"}, {"name": "separable_conv_2_bn_normal_left5_12/gamma", "shape": [176], "dtype": "float32"}, {"name": "separable_conv_2_bn_normal_left5_12/beta", "shape": [176], "dtype": "float32"}, {"name": "separable_conv_2_bn_normal_left5_12/moving_mean", "shape": [176], "dtype": "float32"}, {"name": "separable_conv_2_bn_normal_left5_12/moving_variance", "shape": [176], "dtype": "float32"}, {"name": "separable_conv_2_bn_normal_left5_2/gamma", "shape": [44], "dtype": "float32"}, {"name": "separable_conv_2_bn_normal_left5_2/beta", "shape": [44], "dtype": "float32"}, {"name": "separable_conv_2_bn_normal_left5_2/moving_mean", "shape": [44], "dtype": "float32"}, {"name": "separable_conv_2_bn_normal_left5_2/moving_variance", "shape": [44], "dtype": "float32"}, {"name": "separable_conv_2_bn_normal_left5_3/gamma", "shape": [44], "dtype": "float32"}, {"name": "separable_conv_2_bn_normal_left5_3/beta", "shape": [44], "dtype": "float32"}, {"name": "separable_conv_2_bn_normal_left5_3/moving_mean", "shape": [44], "dtype": "float32"}, {"name": "separable_conv_2_bn_normal_left5_3/moving_variance", "shape": [44], "dtype": "float32"}, {"name": "separable_conv_2_bn_normal_left5_5/gamma", "shape": [88], "dtype": "float32"}, {"name": "separable_conv_2_bn_normal_left5_5/beta", "shape": [88], "dtype": "float32"}, {"name": "separable_conv_2_bn_normal_left5_5/moving_mean", "shape": [88], "dtype": "float32"}, {"name": "separable_conv_2_bn_normal_left5_5/moving_variance", "shape": [88], "dtype": "float32"}, {"name": "separable_conv_2_bn_normal_left5_6/gamma", "shape": [88], "dtype": "float32"}, {"name": "separable_conv_2_bn_normal_left5_6/beta", "shape": [88], "dtype": "float32"}, {"name": "separable_conv_2_bn_normal_left5_6/moving_mean", "shape": [88], "dtype": "float32"}, {"name": "separable_conv_2_bn_normal_left5_6/moving_variance", "shape": [88], "dtype": "float32"}, {"name": "separable_conv_2_bn_normal_left5_7/gamma", "shape": [88], "dtype": "float32"}, {"name": "separable_conv_2_bn_normal_left5_7/beta", "shape": [88], "dtype": "float32"}, {"name": "separable_conv_2_bn_normal_left5_7/moving_mean", "shape": [88], "dtype": "float32"}, {"name": "separable_conv_2_bn_normal_left5_7/moving_variance", "shape": [88], "dtype": "float32"}, {"name": "separable_conv_2_bn_normal_left5_8/gamma", "shape": [88], "dtype": "float32"}, {"name": "separable_conv_2_bn_normal_left5_8/beta", "shape": [88], "dtype": "float32"}, {"name": "separable_conv_2_bn_normal_left5_8/moving_mean", "shape": [88], "dtype": "float32"}, {"name": "separable_conv_2_bn_normal_left5_8/moving_variance", "shape": [88], "dtype": "float32"}, {"name": "separable_conv_2_bn_normal_left5_9/gamma", "shape": [176], "dtype": "float32"}, {"name": "separable_conv_2_bn_normal_left5_9/beta", "shape": [176], "dtype": "float32"}, {"name": "separable_conv_2_bn_normal_left5_9/moving_mean", "shape": [176], "dtype": "float32"}, {"name": "separable_conv_2_bn_normal_left5_9/moving_variance", "shape": [176], "dtype": "float32"}, {"name": "separable_conv_2_bn_normal_right1_0/gamma", "shape": [44], "dtype": "float32"}, {"name": "separable_conv_2_bn_normal_right1_0/beta", "shape": [44], "dtype": "float32"}, {"name": "separable_conv_2_bn_normal_right1_0/moving_mean", "shape": [44], "dtype": "float32"}, {"name": "separable_conv_2_bn_normal_right1_0/moving_variance", "shape": [44], "dtype": "float32"}, {"name": "separable_conv_2_bn_normal_right1_1/gamma", "shape": [44], "dtype": "float32"}, {"name": "separable_conv_2_bn_normal_right1_1/beta", "shape": [44], "dtype": "float32"}, {"name": "separable_conv_2_bn_normal_right1_1/moving_mean", "shape": [44], "dtype": "float32"}, {"name": "separable_conv_2_bn_normal_right1_1/moving_variance", "shape": [44], "dtype": "float32"}, {"name": "separable_conv_2_bn_normal_right1_10/gamma", "shape": [176], "dtype": "float32"}, {"name": "separable_conv_2_bn_normal_right1_10/beta", "shape": [176], "dtype": "float32"}, {"name": "separable_conv_2_bn_normal_right1_10/moving_mean", "shape": [176], "dtype": "float32"}, {"name": "separable_conv_2_bn_normal_right1_10/moving_variance", "shape": [176], "dtype": "float32"}, {"name": "separable_conv_2_bn_normal_right1_11/gamma", "shape": [176], "dtype": "float32"}, {"name": "separable_conv_2_bn_normal_right1_11/beta", "shape": [176], "dtype": "float32"}, {"name": "separable_conv_2_bn_normal_right1_11/moving_mean", "shape": [176], "dtype": "float32"}, {"name": "separable_conv_2_bn_normal_right1_11/moving_variance", "shape": [176], "dtype": "float32"}, {"name": "separable_conv_2_bn_normal_right1_12/gamma", "shape": [176], "dtype": "float32"}, {"name": "separable_conv_2_bn_normal_right1_12/beta", "shape": [176], "dtype": "float32"}, {"name": "separable_conv_2_bn_normal_right1_12/moving_mean", "shape": [176], "dtype": "float32"}, {"name": "separable_conv_2_bn_normal_right1_12/moving_variance", "shape": [176], "dtype": "float32"}, {"name": "separable_conv_2_bn_normal_right1_2/gamma", "shape": [44], "dtype": "float32"}, {"name": "separable_conv_2_bn_normal_right1_2/beta", "shape": [44], "dtype": "float32"}, {"name": "separable_conv_2_bn_normal_right1_2/moving_mean", "shape": [44], "dtype": "float32"}, {"name": "separable_conv_2_bn_normal_right1_2/moving_variance", "shape": [44], "dtype": "float32"}, {"name": "separable_conv_2_bn_normal_right1_3/gamma", "shape": [44], "dtype": "float32"}, {"name": "separable_conv_2_bn_normal_right1_3/beta", "shape": [44], "dtype": "float32"}, {"name": "separable_conv_2_bn_normal_right1_3/moving_mean", "shape": [44], "dtype": "float32"}, {"name": "separable_conv_2_bn_normal_right1_3/moving_variance", "shape": [44], "dtype": "float32"}, {"name": "separable_conv_2_bn_normal_right1_5/gamma", "shape": [88], "dtype": "float32"}, {"name": "separable_conv_2_bn_normal_right1_5/beta", "shape": [88], "dtype": "float32"}, {"name": "separable_conv_2_bn_normal_right1_5/moving_mean", "shape": [88], "dtype": "float32"}, {"name": "separable_conv_2_bn_normal_right1_5/moving_variance", "shape": [88], "dtype": "float32"}, {"name": "separable_conv_2_bn_normal_right1_6/gamma", "shape": [88], "dtype": "float32"}, {"name": "separable_conv_2_bn_normal_right1_6/beta", "shape": [88], "dtype": "float32"}, {"name": "separable_conv_2_bn_normal_right1_6/moving_mean", "shape": [88], "dtype": "float32"}, {"name": "separable_conv_2_bn_normal_right1_6/moving_variance", "shape": [88], "dtype": "float32"}, {"name": "separable_conv_2_bn_normal_right1_7/gamma", "shape": [88], "dtype": "float32"}, {"name": "separable_conv_2_bn_normal_right1_7/beta", "shape": [88], "dtype": "float32"}, {"name": "separable_conv_2_bn_normal_right1_7/moving_mean", "shape": [88], "dtype": "float32"}, {"name": "separable_conv_2_bn_normal_right1_7/moving_variance", "shape": [88], "dtype": "float32"}, {"name": "separable_conv_2_bn_normal_right1_8/gamma", "shape": [88], "dtype": "float32"}, {"name": "separable_conv_2_bn_normal_right1_8/beta", "shape": [88], "dtype": "float32"}, {"name": "separable_conv_2_bn_normal_right1_8/moving_mean", "shape": [88], "dtype": "float32"}, {"name": "separable_conv_2_bn_normal_right1_8/moving_variance", "shape": [88], "dtype": "float32"}, {"name": "separable_conv_2_bn_normal_right1_9/gamma", "shape": [176], "dtype": "float32"}, {"name": "separable_conv_2_bn_normal_right1_9/beta", "shape": [176], "dtype": "float32"}, {"name": "separable_conv_2_bn_normal_right1_9/moving_mean", "shape": [176], "dtype": "float32"}, {"name": "separable_conv_2_bn_normal_right1_9/moving_variance", "shape": [176], "dtype": "float32"}, {"name": "separable_conv_2_bn_normal_right2_0/gamma", "shape": [44], "dtype": "float32"}, {"name": "separable_conv_2_bn_normal_right2_0/beta", "shape": [44], "dtype": "float32"}, {"name": "separable_conv_2_bn_normal_right2_0/moving_mean", "shape": [44], "dtype": "float32"}, {"name": "separable_conv_2_bn_normal_right2_0/moving_variance", "shape": [44], "dtype": "float32"}, {"name": "separable_conv_2_bn_normal_right2_1/gamma", "shape": [44], "dtype": "float32"}, {"name": "separable_conv_2_bn_normal_right2_1/beta", "shape": [44], "dtype": "float32"}, {"name": "separable_conv_2_bn_normal_right2_1/moving_mean", "shape": [44], "dtype": "float32"}, {"name": "separable_conv_2_bn_normal_right2_1/moving_variance", "shape": [44], "dtype": "float32"}, {"name": "separable_conv_2_bn_normal_right2_10/gamma", "shape": [176], "dtype": "float32"}, {"name": "separable_conv_2_bn_normal_right2_10/beta", "shape": [176], "dtype": "float32"}, {"name": "separable_conv_2_bn_normal_right2_10/moving_mean", "shape": [176], "dtype": "float32"}, {"name": "separable_conv_2_bn_normal_right2_10/moving_variance", "shape": [176], "dtype": "float32"}, {"name": "separable_conv_2_bn_normal_right2_11/gamma", "shape": [176], "dtype": "float32"}, {"name": "separable_conv_2_bn_normal_right2_11/beta", "shape": [176], "dtype": "float32"}, {"name": "separable_conv_2_bn_normal_right2_11/moving_mean", "shape": [176], "dtype": "float32"}, {"name": "separable_conv_2_bn_normal_right2_11/moving_variance", "shape": [176], "dtype": "float32"}, {"name": "separable_conv_2_bn_normal_right2_12/gamma", "shape": [176], "dtype": "float32"}, {"name": "separable_conv_2_bn_normal_right2_12/beta", "shape": [176], "dtype": "float32"}, {"name": "separable_conv_2_bn_normal_right2_12/moving_mean", "shape": [176], "dtype": "float32"}, {"name": "separable_conv_2_bn_normal_right2_12/moving_variance", "shape": [176], "dtype": "float32"}, {"name": "separable_conv_2_bn_normal_right2_2/gamma", "shape": [44], "dtype": "float32"}, {"name": "separable_conv_2_bn_normal_right2_2/beta", "shape": [44], "dtype": "float32"}, {"name": "separable_conv_2_bn_normal_right2_2/moving_mean", "shape": [44], "dtype": "float32"}, {"name": "separable_conv_2_bn_normal_right2_2/moving_variance", "shape": [44], "dtype": "float32"}, {"name": "separable_conv_2_bn_normal_right2_3/gamma", "shape": [44], "dtype": "float32"}, {"name": "separable_conv_2_bn_normal_right2_3/beta", "shape": [44], "dtype": "float32"}, {"name": "separable_conv_2_bn_normal_right2_3/moving_mean", "shape": [44], "dtype": "float32"}, {"name": "separable_conv_2_bn_normal_right2_3/moving_variance", "shape": [44], "dtype": "float32"}, {"name": "separable_conv_2_bn_normal_right2_5/gamma", "shape": [88], "dtype": "float32"}, {"name": "separable_conv_2_bn_normal_right2_5/beta", "shape": [88], "dtype": "float32"}, {"name": "separable_conv_2_bn_normal_right2_5/moving_mean", "shape": [88], "dtype": "float32"}, {"name": "separable_conv_2_bn_normal_right2_5/moving_variance", "shape": [88], "dtype": "float32"}, {"name": "separable_conv_2_bn_normal_right2_6/gamma", "shape": [88], "dtype": "float32"}, {"name": "separable_conv_2_bn_normal_right2_6/beta", "shape": [88], "dtype": "float32"}, {"name": "separable_conv_2_bn_normal_right2_6/moving_mean", "shape": [88], "dtype": "float32"}, {"name": "separable_conv_2_bn_normal_right2_6/moving_variance", "shape": [88], "dtype": "float32"}, {"name": "separable_conv_2_bn_normal_right2_7/gamma", "shape": [88], "dtype": "float32"}, {"name": "separable_conv_2_bn_normal_right2_7/beta", "shape": [88], "dtype": "float32"}, {"name": "separable_conv_2_bn_normal_right2_7/moving_mean", "shape": [88], "dtype": "float32"}, {"name": "separable_conv_2_bn_normal_right2_7/moving_variance", "shape": [88], "dtype": "float32"}, {"name": "separable_conv_2_bn_normal_right2_8/gamma", "shape": [88], "dtype": "float32"}, {"name": "separable_conv_2_bn_normal_right2_8/beta", "shape": [88], "dtype": "float32"}, {"name": "separable_conv_2_bn_normal_right2_8/moving_mean", "shape": [88], "dtype": "float32"}, {"name": "separable_conv_2_bn_normal_right2_8/moving_variance", "shape": [88], "dtype": "float32"}, {"name": "separable_conv_2_bn_normal_right2_9/gamma", "shape": [176], "dtype": "float32"}, {"name": "separable_conv_2_bn_normal_right2_9/beta", "shape": [176], "dtype": "float32"}, {"name": "separable_conv_2_bn_normal_right2_9/moving_mean", "shape": [176], "dtype": "float32"}, {"name": "separable_conv_2_bn_normal_right2_9/moving_variance", "shape": [176], "dtype": "float32"}, {"name": "separable_conv_2_bn_reduction_left1_reduce_4/gamma", "shape": [88], "dtype": "float32"}, {"name": "separable_conv_2_bn_reduction_left1_reduce_4/beta", "shape": [88], "dtype": "float32"}, {"name": "separable_conv_2_bn_reduction_left1_reduce_4/moving_mean", "shape": [88], "dtype": "float32"}, {"name": "separable_conv_2_bn_reduction_left1_reduce_4/moving_variance", "shape": [88], "dtype": "float32"}, {"name": "separable_conv_2_bn_reduction_left1_reduce_8/gamma", "shape": [176], "dtype": "float32"}, {"name": "separable_conv_2_bn_reduction_left1_reduce_8/beta", "shape": [176], "dtype": "float32"}, {"name": "separable_conv_2_bn_reduction_left1_reduce_8/moving_mean", "shape": [176], "dtype": "float32"}, {"name": "separable_conv_2_bn_reduction_left1_reduce_8/moving_variance", "shape": [176], "dtype": "float32"}, {"name": "separable_conv_2_bn_reduction_left1_stem_1/gamma", "shape": [11], "dtype": "float32"}, {"name": "separable_conv_2_bn_reduction_left1_stem_1/beta", "shape": [11], "dtype": "float32"}, {"name": "separable_conv_2_bn_reduction_left1_stem_1/moving_mean", "shape": [11], "dtype": "float32"}, {"name": "separable_conv_2_bn_reduction_left1_stem_1/moving_variance", "shape": [11], "dtype": "float32"}, {"name": "separable_conv_2_bn_reduction_left1_stem_2/gamma", "shape": [22], "dtype": "float32"}, {"name": "separable_conv_2_bn_reduction_left1_stem_2/beta", "shape": [22], "dtype": "float32"}, {"name": "separable_conv_2_bn_reduction_left1_stem_2/moving_mean", "shape": [22], "dtype": "float32"}, {"name": "separable_conv_2_bn_reduction_left1_stem_2/moving_variance", "shape": [22], "dtype": "float32"}, {"name": "separable_conv_2_bn_reduction_left4_reduce_4/gamma", "shape": [88], "dtype": "float32"}, {"name": "separable_conv_2_bn_reduction_left4_reduce_4/beta", "shape": [88], "dtype": "float32"}, {"name": "separable_conv_2_bn_reduction_left4_reduce_4/moving_mean", "shape": [88], "dtype": "float32"}, {"name": "separable_conv_2_bn_reduction_left4_reduce_4/moving_variance", "shape": [88], "dtype": "float32"}, {"name": "separable_conv_2_bn_reduction_left4_reduce_8/gamma", "shape": [176], "dtype": "float32"}, {"name": "separable_conv_2_bn_reduction_left4_reduce_8/beta", "shape": [176], "dtype": "float32"}, {"name": "separable_conv_2_bn_reduction_left4_reduce_8/moving_mean", "shape": [176], "dtype": "float32"}, {"name": "separable_conv_2_bn_reduction_left4_reduce_8/moving_variance", "shape": [176], "dtype": "float32"}, {"name": "separable_conv_2_bn_reduction_left4_stem_1/gamma", "shape": [11], "dtype": "float32"}, {"name": "separable_conv_2_bn_reduction_left4_stem_1/beta", "shape": [11], "dtype": "float32"}, {"name": "separable_conv_2_bn_reduction_left4_stem_1/moving_mean", "shape": [11], "dtype": "float32"}, {"name": "separable_conv_2_bn_reduction_left4_stem_1/moving_variance", "shape": [11], "dtype": "float32"}, {"name": "separable_conv_2_bn_reduction_left4_stem_2/gamma", "shape": [22], "dtype": "float32"}, {"name": "separable_conv_2_bn_reduction_left4_stem_2/beta", "shape": [22], "dtype": "float32"}, {"name": "separable_conv_2_bn_reduction_left4_stem_2/moving_mean", "shape": [22], "dtype": "float32"}, {"name": "separable_conv_2_bn_reduction_left4_stem_2/moving_variance", "shape": [22], "dtype": "float32"}, {"name": "separable_conv_2_bn_reduction_right1_reduce_4/gamma", "shape": [88], "dtype": "float32"}, {"name": "separable_conv_2_bn_reduction_right1_reduce_4/beta", "shape": [88], "dtype": "float32"}, {"name": "separable_conv_2_bn_reduction_right1_reduce_4/moving_mean", "shape": [88], "dtype": "float32"}, {"name": "separable_conv_2_bn_reduction_right1_reduce_4/moving_variance", "shape": [88], "dtype": "float32"}, {"name": "separable_conv_2_bn_reduction_right1_reduce_8/gamma", "shape": [176], "dtype": "float32"}, {"name": "separable_conv_2_bn_reduction_right1_reduce_8/beta", "shape": [176], "dtype": "float32"}, {"name": "separable_conv_2_bn_reduction_right1_reduce_8/moving_mean", "shape": [176], "dtype": "float32"}, {"name": "separable_conv_2_bn_reduction_right1_reduce_8/moving_variance", "shape": [176], "dtype": "float32"}, {"name": "separable_conv_2_bn_reduction_right1_stem_1/gamma", "shape": [11], "dtype": "float32"}, {"name": "separable_conv_2_bn_reduction_right1_stem_1/beta", "shape": [11], "dtype": "float32"}, {"name": "separable_conv_2_bn_reduction_right1_stem_1/moving_mean", "shape": [11], "dtype": "float32"}, {"name": "separable_conv_2_bn_reduction_right1_stem_1/moving_variance", "shape": [11], "dtype": "float32"}, {"name": "separable_conv_2_bn_reduction_right1_stem_2/gamma", "shape": [22], "dtype": "float32"}, {"name": "separable_conv_2_bn_reduction_right1_stem_2/beta", "shape": [22], "dtype": "float32"}, {"name": "separable_conv_2_bn_reduction_right1_stem_2/moving_mean", "shape": [22], "dtype": "float32"}, {"name": "separable_conv_2_bn_reduction_right1_stem_2/moving_variance", "shape": [22], "dtype": "float32"}, {"name": "separable_conv_2_bn_reduction_right2_reduce_4/gamma", "shape": [88], "dtype": "float32"}, {"name": "separable_conv_2_bn_reduction_right2_reduce_4/beta", "shape": [88], "dtype": "float32"}, {"name": "separable_conv_2_bn_reduction_right2_reduce_4/moving_mean", "shape": [88], "dtype": "float32"}, {"name": "separable_conv_2_bn_reduction_right2_reduce_4/moving_variance", "shape": [88], "dtype": "float32"}, {"name": "separable_conv_2_bn_reduction_right2_reduce_8/gamma", "shape": [176], "dtype": "float32"}, {"name": "separable_conv_2_bn_reduction_right2_reduce_8/beta", "shape": [176], "dtype": "float32"}, {"name": "separable_conv_2_bn_reduction_right2_reduce_8/moving_mean", "shape": [176], "dtype": "float32"}, {"name": "separable_conv_2_bn_reduction_right2_reduce_8/moving_variance", "shape": [176], "dtype": "float32"}, {"name": "separable_conv_2_bn_reduction_right2_stem_1/gamma", "shape": [11], "dtype": "float32"}, {"name": "separable_conv_2_bn_reduction_right2_stem_1/beta", "shape": [11], "dtype": "float32"}, {"name": "separable_conv_2_bn_reduction_right2_stem_1/moving_mean", "shape": [11], "dtype": "float32"}, {"name": "separable_conv_2_bn_reduction_right2_stem_1/moving_variance", "shape": [11], "dtype": "float32"}, {"name": "separable_conv_2_bn_reduction_right2_stem_2/gamma", "shape": [22], "dtype": "float32"}, {"name": "separable_conv_2_bn_reduction_right2_stem_2/beta", "shape": [22], "dtype": "float32"}, {"name": "separable_conv_2_bn_reduction_right2_stem_2/moving_mean", "shape": [22], "dtype": "float32"}, {"name": "separable_conv_2_bn_reduction_right2_stem_2/moving_variance", "shape": [22], "dtype": "float32"}, {"name": "separable_conv_2_bn_reduction_right3_reduce_4/gamma", "shape": [88], "dtype": "float32"}, {"name": "separable_conv_2_bn_reduction_right3_reduce_4/beta", "shape": [88], "dtype": "float32"}, {"name": "separable_conv_2_bn_reduction_right3_reduce_4/moving_mean", "shape": [88], "dtype": "float32"}, {"name": "separable_conv_2_bn_reduction_right3_reduce_4/moving_variance", "shape": [88], "dtype": "float32"}, {"name": "separable_conv_2_bn_reduction_right3_reduce_8/gamma", "shape": [176], "dtype": "float32"}, {"name": "separable_conv_2_bn_reduction_right3_reduce_8/beta", "shape": [176], "dtype": "float32"}, {"name": "separable_conv_2_bn_reduction_right3_reduce_8/moving_mean", "shape": [176], "dtype": "float32"}, {"name": "separable_conv_2_bn_reduction_right3_reduce_8/moving_variance", "shape": [176], "dtype": "float32"}, {"name": "separable_conv_2_bn_reduction_right3_stem_1/gamma", "shape": [11], "dtype": "float32"}, {"name": "separable_conv_2_bn_reduction_right3_stem_1/beta", "shape": [11], "dtype": "float32"}, {"name": "separable_conv_2_bn_reduction_right3_stem_1/moving_mean", "shape": [11], "dtype": "float32"}, {"name": "separable_conv_2_bn_reduction_right3_stem_1/moving_variance", "shape": [11], "dtype": "float32"}, {"name": "separable_conv_2_bn_reduction_right3_stem_2/gamma", "shape": [22], "dtype": "float32"}, {"name": "separable_conv_2_bn_reduction_right3_stem_2/beta", "shape": [22], "dtype": "float32"}, {"name": "separable_conv_2_bn_reduction_right3_stem_2/moving_mean", "shape": [22], "dtype": "float32"}, {"name": "separable_conv_2_bn_reduction_right3_stem_2/moving_variance", "shape": [22], "dtype": "float32"}, {"name": "separable_conv_2_normal_left1_0/depthwise_kernel", "shape": [5, 5, 44, 1], "dtype": "float32"}, {"name": "separable_conv_2_normal_left1_0/pointwise_kernel", "shape": [1, 1, 44, 44], "dtype": "float32"}, {"name": "separable_conv_2_normal_left1_1/depthwise_kernel", "shape": [5, 5, 44, 1], "dtype": "float32"}, {"name": "separable_conv_2_normal_left1_1/pointwise_kernel", "shape": [1, 1, 44, 44], "dtype": "float32"}, {"name": "separable_conv_2_normal_left1_10/depthwise_kernel", "shape": [5, 5, 176, 1], "dtype": "float32"}, {"name": "separable_conv_2_normal_left1_10/pointwise_kernel", "shape": [1, 1, 176, 176], "dtype": "float32"}, {"name": "separable_conv_2_normal_left1_11/depthwise_kernel", "shape": [5, 5, 176, 1], "dtype": "float32"}, {"name": "separable_conv_2_normal_left1_11/pointwise_kernel", "shape": [1, 1, 176, 176], "dtype": "float32"}, {"name": "separable_conv_2_normal_left1_12/depthwise_kernel", "shape": [5, 5, 176, 1], "dtype": "float32"}, {"name": "separable_conv_2_normal_left1_12/pointwise_kernel", "shape": [1, 1, 176, 176], "dtype": "float32"}, {"name": "separable_conv_2_normal_left1_2/depthwise_kernel", "shape": [5, 5, 44, 1], "dtype": "float32"}, {"name": "separable_conv_2_normal_left1_2/pointwise_kernel", "shape": [1, 1, 44, 44], "dtype": "float32"}, {"name": "separable_conv_2_normal_left1_3/depthwise_kernel", "shape": [5, 5, 44, 1], "dtype": "float32"}, {"name": "separable_conv_2_normal_left1_3/pointwise_kernel", "shape": [1, 1, 44, 44], "dtype": "float32"}, {"name": "separable_conv_2_normal_left1_5/depthwise_kernel", "shape": [5, 5, 88, 1], "dtype": "float32"}, {"name": "separable_conv_2_normal_left1_5/pointwise_kernel", "shape": [1, 1, 88, 88], "dtype": "float32"}, {"name": "separable_conv_2_normal_left1_6/depthwise_kernel", "shape": [5, 5, 88, 1], "dtype": "float32"}, {"name": "separable_conv_2_normal_left1_6/pointwise_kernel", "shape": [1, 1, 88, 88], "dtype": "float32"}, {"name": "separable_conv_2_normal_left1_7/depthwise_kernel", "shape": [5, 5, 88, 1], "dtype": "float32"}, {"name": "separable_conv_2_normal_left1_7/pointwise_kernel", "shape": [1, 1, 88, 88], "dtype": "float32"}, {"name": "separable_conv_2_normal_left1_8/depthwise_kernel", "shape": [5, 5, 88, 1], "dtype": "float32"}, {"name": "separable_conv_2_normal_left1_8/pointwise_kernel", "shape": [1, 1, 88, 88], "dtype": "float32"}, {"name": "separable_conv_2_normal_left1_9/depthwise_kernel", "shape": [5, 5, 176, 1], "dtype": "float32"}, {"name": "separable_conv_2_normal_left1_9/pointwise_kernel", "shape": [1, 1, 176, 176], "dtype": "float32"}, {"name": "separable_conv_2_normal_left2_0/depthwise_kernel", "shape": [5, 5, 44, 1], "dtype": "float32"}, {"name": "separable_conv_2_normal_left2_0/pointwise_kernel", "shape": [1, 1, 44, 44], "dtype": "float32"}, {"name": "separable_conv_2_normal_left2_1/depthwise_kernel", "shape": [5, 5, 44, 1], "dtype": "float32"}, {"name": "separable_conv_2_normal_left2_1/pointwise_kernel", "shape": [1, 1, 44, 44], "dtype": "float32"}, {"name": "separable_conv_2_normal_left2_10/depthwise_kernel", "shape": [5, 5, 176, 1], "dtype": "float32"}, {"name": "separable_conv_2_normal_left2_10/pointwise_kernel", "shape": [1, 1, 176, 176], "dtype": "float32"}, {"name": "separable_conv_2_normal_left2_11/depthwise_kernel", "shape": [5, 5, 176, 1], "dtype": "float32"}, {"name": "separable_conv_2_normal_left2_11/pointwise_kernel", "shape": [1, 1, 176, 176], "dtype": "float32"}, {"name": "separable_conv_2_normal_left2_12/depthwise_kernel", "shape": [5, 5, 176, 1], "dtype": "float32"}, {"name": "separable_conv_2_normal_left2_12/pointwise_kernel", "shape": [1, 1, 176, 176], "dtype": "float32"}, {"name": "separable_conv_2_normal_left2_2/depthwise_kernel", "shape": [5, 5, 44, 1], "dtype": "float32"}, {"name": "separable_conv_2_normal_left2_2/pointwise_kernel", "shape": [1, 1, 44, 44], "dtype": "float32"}, {"name": "separable_conv_2_normal_left2_3/depthwise_kernel", "shape": [5, 5, 44, 1], "dtype": "float32"}, {"name": "separable_conv_2_normal_left2_3/pointwise_kernel", "shape": [1, 1, 44, 44], "dtype": "float32"}, {"name": "separable_conv_2_normal_left2_5/depthwise_kernel", "shape": [5, 5, 88, 1], "dtype": "float32"}, {"name": "separable_conv_2_normal_left2_5/pointwise_kernel", "shape": [1, 1, 88, 88], "dtype": "float32"}, {"name": "separable_conv_2_normal_left2_6/depthwise_kernel", "shape": [5, 5, 88, 1], "dtype": "float32"}, {"name": "separable_conv_2_normal_left2_6/pointwise_kernel", "shape": [1, 1, 88, 88], "dtype": "float32"}, {"name": "separable_conv_2_normal_left2_7/depthwise_kernel", "shape": [5, 5, 88, 1], "dtype": "float32"}, {"name": "separable_conv_2_normal_left2_7/pointwise_kernel", "shape": [1, 1, 88, 88], "dtype": "float32"}, {"name": "separable_conv_2_normal_left2_8/depthwise_kernel", "shape": [5, 5, 88, 1], "dtype": "float32"}, {"name": "separable_conv_2_normal_left2_8/pointwise_kernel", "shape": [1, 1, 88, 88], "dtype": "float32"}, {"name": "separable_conv_2_normal_left2_9/depthwise_kernel", "shape": [5, 5, 176, 1], "dtype": "float32"}, {"name": "separable_conv_2_normal_left2_9/pointwise_kernel", "shape": [1, 1, 176, 176], "dtype": "float32"}, {"name": "separable_conv_2_normal_left5_0/depthwise_kernel", "shape": [3, 3, 44, 1], "dtype": "float32"}, {"name": "separable_conv_2_normal_left5_0/pointwise_kernel", "shape": [1, 1, 44, 44], "dtype": "float32"}, {"name": "separable_conv_2_normal_left5_1/depthwise_kernel", "shape": [3, 3, 44, 1], "dtype": "float32"}, {"name": "separable_conv_2_normal_left5_1/pointwise_kernel", "shape": [1, 1, 44, 44], "dtype": "float32"}, {"name": "separable_conv_2_normal_left5_10/depthwise_kernel", "shape": [3, 3, 176, 1], "dtype": "float32"}, {"name": "separable_conv_2_normal_left5_10/pointwise_kernel", "shape": [1, 1, 176, 176], "dtype": "float32"}, {"name": "separable_conv_2_normal_left5_11/depthwise_kernel", "shape": [3, 3, 176, 1], "dtype": "float32"}, {"name": "separable_conv_2_normal_left5_11/pointwise_kernel", "shape": [1, 1, 176, 176], "dtype": "float32"}, {"name": "separable_conv_2_normal_left5_12/depthwise_kernel", "shape": [3, 3, 176, 1], "dtype": "float32"}, {"name": "separable_conv_2_normal_left5_12/pointwise_kernel", "shape": [1, 1, 176, 176], "dtype": "float32"}, {"name": "separable_conv_2_normal_left5_2/depthwise_kernel", "shape": [3, 3, 44, 1], "dtype": "float32"}, {"name": "separable_conv_2_normal_left5_2/pointwise_kernel", "shape": [1, 1, 44, 44], "dtype": "float32"}, {"name": "separable_conv_2_normal_left5_3/depthwise_kernel", "shape": [3, 3, 44, 1], "dtype": "float32"}, {"name": "separable_conv_2_normal_left5_3/pointwise_kernel", "shape": [1, 1, 44, 44], "dtype": "float32"}, {"name": "separable_conv_2_normal_left5_5/depthwise_kernel", "shape": [3, 3, 88, 1], "dtype": "float32"}, {"name": "separable_conv_2_normal_left5_5/pointwise_kernel", "shape": [1, 1, 88, 88], "dtype": "float32"}, {"name": "separable_conv_2_normal_left5_6/depthwise_kernel", "shape": [3, 3, 88, 1], "dtype": "float32"}, {"name": "separable_conv_2_normal_left5_6/pointwise_kernel", "shape": [1, 1, 88, 88], "dtype": "float32"}, {"name": "separable_conv_2_normal_left5_7/depthwise_kernel", "shape": [3, 3, 88, 1], "dtype": "float32"}, {"name": "separable_conv_2_normal_left5_7/pointwise_kernel", "shape": [1, 1, 88, 88], "dtype": "float32"}, {"name": "separable_conv_2_normal_left5_8/depthwise_kernel", "shape": [3, 3, 88, 1], "dtype": "float32"}, {"name": "separable_conv_2_normal_left5_8/pointwise_kernel", "shape": [1, 1, 88, 88], "dtype": "float32"}, {"name": "separable_conv_2_normal_left5_9/depthwise_kernel", "shape": [3, 3, 176, 1], "dtype": "float32"}, {"name": "separable_conv_2_normal_left5_9/pointwise_kernel", "shape": [1, 1, 176, 176], "dtype": "float32"}, {"name": "separable_conv_2_normal_right1_0/depthwise_kernel", "shape": [3, 3, 44, 1], "dtype": "float32"}, {"name": "separable_conv_2_normal_right1_0/pointwise_kernel", "shape": [1, 1, 44, 44], "dtype": "float32"}, {"name": "separable_conv_2_normal_right1_1/depthwise_kernel", "shape": [3, 3, 44, 1], "dtype": "float32"}, {"name": "separable_conv_2_normal_right1_1/pointwise_kernel", "shape": [1, 1, 44, 44], "dtype": "float32"}, {"name": "separable_conv_2_normal_right1_10/depthwise_kernel", "shape": [3, 3, 176, 1], "dtype": "float32"}, {"name": "separable_conv_2_normal_right1_10/pointwise_kernel", "shape": [1, 1, 176, 176], "dtype": "float32"}, {"name": "separable_conv_2_normal_right1_11/depthwise_kernel", "shape": [3, 3, 176, 1], "dtype": "float32"}, {"name": "separable_conv_2_normal_right1_11/pointwise_kernel", "shape": [1, 1, 176, 176], "dtype": "float32"}, {"name": "separable_conv_2_normal_right1_12/depthwise_kernel", "shape": [3, 3, 176, 1], "dtype": "float32"}, {"name": "separable_conv_2_normal_right1_12/pointwise_kernel", "shape": [1, 1, 176, 176], "dtype": "float32"}, {"name": "separable_conv_2_normal_right1_2/depthwise_kernel", "shape": [3, 3, 44, 1], "dtype": "float32"}, {"name": "separable_conv_2_normal_right1_2/pointwise_kernel", "shape": [1, 1, 44, 44], "dtype": "float32"}, {"name": "separable_conv_2_normal_right1_3/depthwise_kernel", "shape": [3, 3, 44, 1], "dtype": "float32"}, {"name": "separable_conv_2_normal_right1_3/pointwise_kernel", "shape": [1, 1, 44, 44], "dtype": "float32"}, {"name": "separable_conv_2_normal_right1_5/depthwise_kernel", "shape": [3, 3, 88, 1], "dtype": "float32"}, {"name": "separable_conv_2_normal_right1_5/pointwise_kernel", "shape": [1, 1, 88, 88], "dtype": "float32"}, {"name": "separable_conv_2_normal_right1_6/depthwise_kernel", "shape": [3, 3, 88, 1], "dtype": "float32"}, {"name": "separable_conv_2_normal_right1_6/pointwise_kernel", "shape": [1, 1, 88, 88], "dtype": "float32"}, {"name": "separable_conv_2_normal_right1_7/depthwise_kernel", "shape": [3, 3, 88, 1], "dtype": "float32"}, {"name": "separable_conv_2_normal_right1_7/pointwise_kernel", "shape": [1, 1, 88, 88], "dtype": "float32"}, {"name": "separable_conv_2_normal_right1_8/depthwise_kernel", "shape": [3, 3, 88, 1], "dtype": "float32"}, {"name": "separable_conv_2_normal_right1_8/pointwise_kernel", "shape": [1, 1, 88, 88], "dtype": "float32"}, {"name": "separable_conv_2_normal_right1_9/depthwise_kernel", "shape": [3, 3, 176, 1], "dtype": "float32"}, {"name": "separable_conv_2_normal_right1_9/pointwise_kernel", "shape": [1, 1, 176, 176], "dtype": "float32"}, {"name": "separable_conv_2_normal_right2_0/depthwise_kernel", "shape": [3, 3, 44, 1], "dtype": "float32"}, {"name": "separable_conv_2_normal_right2_0/pointwise_kernel", "shape": [1, 1, 44, 44], "dtype": "float32"}, {"name": "separable_conv_2_normal_right2_1/depthwise_kernel", "shape": [3, 3, 44, 1], "dtype": "float32"}, {"name": "separable_conv_2_normal_right2_1/pointwise_kernel", "shape": [1, 1, 44, 44], "dtype": "float32"}, {"name": "separable_conv_2_normal_right2_10/depthwise_kernel", "shape": [3, 3, 176, 1], "dtype": "float32"}, {"name": "separable_conv_2_normal_right2_10/pointwise_kernel", "shape": [1, 1, 176, 176], "dtype": "float32"}, {"name": "separable_conv_2_normal_right2_11/depthwise_kernel", "shape": [3, 3, 176, 1], "dtype": "float32"}, {"name": "separable_conv_2_normal_right2_11/pointwise_kernel", "shape": [1, 1, 176, 176], "dtype": "float32"}, {"name": "separable_conv_2_normal_right2_12/depthwise_kernel", "shape": [3, 3, 176, 1], "dtype": "float32"}, {"name": "separable_conv_2_normal_right2_12/pointwise_kernel", "shape": [1, 1, 176, 176], "dtype": "float32"}, {"name": "separable_conv_2_normal_right2_2/depthwise_kernel", "shape": [3, 3, 44, 1], "dtype": "float32"}, {"name": "separable_conv_2_normal_right2_2/pointwise_kernel", "shape": [1, 1, 44, 44], "dtype": "float32"}, {"name": "separable_conv_2_normal_right2_3/depthwise_kernel", "shape": [3, 3, 44, 1], "dtype": "float32"}, {"name": "separable_conv_2_normal_right2_3/pointwise_kernel", "shape": [1, 1, 44, 44], "dtype": "float32"}, {"name": "separable_conv_2_normal_right2_5/depthwise_kernel", "shape": [3, 3, 88, 1], "dtype": "float32"}, {"name": "separable_conv_2_normal_right2_5/pointwise_kernel", "shape": [1, 1, 88, 88], "dtype": "float32"}, {"name": "separable_conv_2_normal_right2_6/depthwise_kernel", "shape": [3, 3, 88, 1], "dtype": "float32"}, {"name": "separable_conv_2_normal_right2_6/pointwise_kernel", "shape": [1, 1, 88, 88], "dtype": "float32"}, {"name": "separable_conv_2_normal_right2_7/depthwise_kernel", "shape": [3, 3, 88, 1], "dtype": "float32"}, {"name": "separable_conv_2_normal_right2_7/pointwise_kernel", "shape": [1, 1, 88, 88], "dtype": "float32"}, {"name": "separable_conv_2_normal_right2_8/depthwise_kernel", "shape": [3, 3, 88, 1], "dtype": "float32"}, {"name": "separable_conv_2_normal_right2_8/pointwise_kernel", "shape": [1, 1, 88, 88], "dtype": "float32"}, {"name": "separable_conv_2_normal_right2_9/depthwise_kernel", "shape": [3, 3, 176, 1], "dtype": "float32"}, {"name": "separable_conv_2_normal_right2_9/pointwise_kernel", "shape": [1, 1, 176, 176], "dtype": "float32"}, {"name": "separable_conv_2_reduction_left1_reduce_4/depthwise_kernel", "shape": [5, 5, 88, 1], "dtype": "float32"}, {"name": "separable_conv_2_reduction_left1_reduce_4/pointwise_kernel", "shape": [1, 1, 88, 88], "dtype": "float32"}, {"name": "separable_conv_2_reduction_left1_reduce_8/depthwise_kernel", "shape": [5, 5, 176, 1], "dtype": "float32"}, {"name": "separable_conv_2_reduction_left1_reduce_8/pointwise_kernel", "shape": [1, 1, 176, 176], "dtype": "float32"}, {"name": "separable_conv_2_reduction_left1_stem_1/depthwise_kernel", "shape": [5, 5, 11, 1], "dtype": "float32"}, {"name": "separable_conv_2_reduction_left1_stem_1/pointwise_kernel", "shape": [1, 1, 11, 11], "dtype": "float32"}, {"name": "separable_conv_2_reduction_left1_stem_2/depthwise_kernel", "shape": [5, 5, 22, 1], "dtype": "float32"}, {"name": "separable_conv_2_reduction_left1_stem_2/pointwise_kernel", "shape": [1, 1, 22, 22], "dtype": "float32"}, {"name": "separable_conv_2_reduction_left4_reduce_4/depthwise_kernel", "shape": [3, 3, 88, 1], "dtype": "float32"}, {"name": "separable_conv_2_reduction_left4_reduce_4/pointwise_kernel", "shape": [1, 1, 88, 88], "dtype": "float32"}, {"name": "separable_conv_2_reduction_left4_reduce_8/depthwise_kernel", "shape": [3, 3, 176, 1], "dtype": "float32"}, {"name": "separable_conv_2_reduction_left4_reduce_8/pointwise_kernel", "shape": [1, 1, 176, 176], "dtype": "float32"}, {"name": "separable_conv_2_reduction_left4_stem_1/depthwise_kernel", "shape": [3, 3, 11, 1], "dtype": "float32"}, {"name": "separable_conv_2_reduction_left4_stem_1/pointwise_kernel", "shape": [1, 1, 11, 11], "dtype": "float32"}, {"name": "separable_conv_2_reduction_left4_stem_2/depthwise_kernel", "shape": [3, 3, 22, 1], "dtype": "float32"}, {"name": "separable_conv_2_reduction_left4_stem_2/pointwise_kernel", "shape": [1, 1, 22, 22], "dtype": "float32"}, {"name": "separable_conv_2_reduction_right1_reduce_4/depthwise_kernel", "shape": [7, 7, 88, 1], "dtype": "float32"}, {"name": "separable_conv_2_reduction_right1_reduce_4/pointwise_kernel", "shape": [1, 1, 88, 88], "dtype": "float32"}, {"name": "separable_conv_2_reduction_right1_reduce_8/depthwise_kernel", "shape": [7, 7, 176, 1], "dtype": "float32"}, {"name": "separable_conv_2_reduction_right1_reduce_8/pointwise_kernel", "shape": [1, 1, 176, 176], "dtype": "float32"}, {"name": "separable_conv_2_reduction_right1_stem_1/depthwise_kernel", "shape": [7, 7, 11, 1], "dtype": "float32"}, {"name": "separable_conv_2_reduction_right1_stem_1/pointwise_kernel", "shape": [1, 1, 11, 11], "dtype": "float32"}, {"name": "separable_conv_2_reduction_right1_stem_2/depthwise_kernel", "shape": [7, 7, 22, 1], "dtype": "float32"}, {"name": "separable_conv_2_reduction_right1_stem_2/pointwise_kernel", "shape": [1, 1, 22, 22], "dtype": "float32"}, {"name": "separable_conv_2_reduction_right2_reduce_4/depthwise_kernel", "shape": [7, 7, 88, 1], "dtype": "float32"}, {"name": "separable_conv_2_reduction_right2_reduce_4/pointwise_kernel", "shape": [1, 1, 88, 88], "dtype": "float32"}, {"name": "separable_conv_2_reduction_right2_reduce_8/depthwise_kernel", "shape": [7, 7, 176, 1], "dtype": "float32"}, {"name": "separable_conv_2_reduction_right2_reduce_8/pointwise_kernel", "shape": [1, 1, 176, 176], "dtype": "float32"}, {"name": "separable_conv_2_reduction_right2_stem_1/depthwise_kernel", "shape": [7, 7, 11, 1], "dtype": "float32"}, {"name": "separable_conv_2_reduction_right2_stem_1/pointwise_kernel", "shape": [1, 1, 11, 11], "dtype": "float32"}, {"name": "separable_conv_2_reduction_right2_stem_2/depthwise_kernel", "shape": [7, 7, 22, 1], "dtype": "float32"}, {"name": "separable_conv_2_reduction_right2_stem_2/pointwise_kernel", "shape": [1, 1, 22, 22], "dtype": "float32"}, {"name": "separable_conv_2_reduction_right3_reduce_4/depthwise_kernel", "shape": [5, 5, 88, 1], "dtype": "float32"}, {"name": "separable_conv_2_reduction_right3_reduce_4/pointwise_kernel", "shape": [1, 1, 88, 88], "dtype": "float32"}, {"name": "separable_conv_2_reduction_right3_reduce_8/depthwise_kernel", "shape": [5, 5, 176, 1], "dtype": "float32"}, {"name": "separable_conv_2_reduction_right3_reduce_8/pointwise_kernel", "shape": [1, 1, 176, 176], "dtype": "float32"}, {"name": "separable_conv_2_reduction_right3_stem_1/depthwise_kernel", "shape": [5, 5, 11, 1], "dtype": "float32"}, {"name": "separable_conv_2_reduction_right3_stem_1/pointwise_kernel", "shape": [1, 1, 11, 11], "dtype": "float32"}, {"name": "separable_conv_2_reduction_right3_stem_2/depthwise_kernel", "shape": [5, 5, 22, 1], "dtype": "float32"}, {"name": "separable_conv_2_reduction_right3_stem_2/pointwise_kernel", "shape": [1, 1, 22, 22], "dtype": "float32"}, {"name": "stem_bn1/gamma", "shape": [32], "dtype": "float32"}, {"name": "stem_bn1/beta", "shape": [32], "dtype": "float32"}, {"name": "stem_bn1/moving_mean", "shape": [32], "dtype": "float32"}, {"name": "stem_bn1/moving_variance", "shape": [32], "dtype": "float32"}, {"name": "stem_conv1/kernel", "shape": [3, 3, 3, 32], "dtype": "float32"}]}]}